models/model_27.pt (torch, 2647 bytes, 5 tensors)

layers.0.weight f4 [10, 1]
00000000: 3ed3 4e3e df97 b43e 7ac9 be3e a7c9 ba3e
00000010: 7aad 2bbd 8729 963e dc1c 033f df4f da3d
00000020: d428 d03e f740 d23e
0.2019777 0.35272118 0.3726309 0.36481974 -0.041913487 0.29328558 0.5121591 0.106597655
0.4065615 0.4106519

layers.0.bias f4 [10]
00000000: af26 943e 19ed a63e 9deb 0b3e 1603 983e
00000010: 7389 97bb 09b4 f23e c1fd 0a3f 1498 493d
00000020: c3fb 5d3e 0403 403e
0.28935763 0.32602766 0.13664098 0.29689854 -0.0046245395 0.4740298 0.5429345 0.0492173
0.2167807 0.1875115

layers.2.weight f4 [10, 10]
00000000: 541d 923e 2c20 a83e f3b2 ac3e 52e9 923e
00000010: 9a0a 0e3d c179 bd3e 2f3b ab3e 6a90 ce3d
00000020: 7ba5 af3e 1a68 823e 24bc 68bd ab97 bebd
00000030: a779 f6bd 65bd 49bd 51d4 4e3d b27e cfbd
00000040: ce46 ddbd 35af 8fbd 33a6 a1bd 9dbc ddbd
00000050: b1bc d63c 1fae b03d 86b1 043e 0b57 943d
00000060: 1558 a23b 21f9 463d f36f 9a3d b51d f13b
00000070: 9b86 b63d f4d7 4d3d fd0a 903e 5e0c af3e
00000080: 4023 953e 4bdb b23e bc5d ce3d 632b a73e
00000090: 1456 d33e 574a bb3d ff05 923e 3051 b23e
000000a0: beb1 8e3e 2b92 8d3e bc1c 883e 9e74 983e
000000b0: 1485 543d 2793 ab3e 9a58 8d3e bc33 e33d
000000c0: 7e40 8d3e 95fb 7b3e 758c 983e 2284 8c3e
000000d0: 2961 693e b686 833e 85d1 653a fe47 b33e
000000e0: 5d29 ad3e 50c4 a53d 9052 953e b438 933e
000000f0: 7d15 513e f04e 9e3e 3135 3f3e 995c 963e
00000100: 7d75 c73b 86b9 9a3e 9092 ab3e 2ded 573d
00000110: b62f 983e e4b1 8b3e e12f 943e de34 b23e
00000120: 8e8c 943e adad aa3e e70d 1e3c 31e5 be3e
00000130: 9fb8 d63e 5757 713d a557 b23e 2e7e 9e3e
00000140: eb8c 843e 8254 a03e bb29 973e f01e 9e3e
00000150: 6798 c13c efe6 b83e c0fa c13e 8dab b53d
00000160: 1a02 933e 7078 c83e 45a5 463e 2565 933e
00000170: 5b3c 4c3e 9c97 963e 5f6e 0d3d 2df6 c13e
00000180: 5e84 c33e 2b79 8e3d 4d60 893e 394d 903e
0.28538 0.32837045 0.33730277 0.28693634 0.03467808 0.37006953 0.3344359 0.100861385
0.3430594 0.25470048 -0.05682005 -0.09306272 -0.12034922 -0.049252886 0.05049545 -0.10131587
-0.108045205 -0.0701584 -0.07893028 -0.10826991 0.026213022 0.08626961 0.12958345 0.07243165
0.004954348 0.04857743 0.07540884 0.0073582777 0.08912393 0.050254777 0.28133383 0.34189123
0.29128456 0.34932932 0.10076472 0.3265029 0.4127661 0.091450386 0.285202 0.34827566
0.27869982 0.2765058 0.26584423 0.29776472 0.051884726 0.33510706 0.2760666 0.11093852
0.27588266 0.2460769 0.2979466 0.2744456 0.2279097 0.25688714 0.00087668776 0.35015863
0.3382062 0.08094084 0.29164553 0.287542 0.20418353 0.309196 0.18672635 0.2936752
0.0060870037 0.30219668 0.33510256 0.052716423 0.297239 0.27284157 0.2894278 0.3480596
0.29013485 0.3333563 0.009646869 0.37284234 0.4193773 0.058921184 0.34832492 0.30955642
0.25888762 0.31314474 0.29524025 0.30882978 0.023632241 0.36113688 0.3788662 0.08870611
0.2871254 0.39154387 0.19398983 0.28788105 0.19944899 0.29412544 0.034529086 0.3788313
0.38186926 0.06956705 0.26831284 0.28183916

layers.2.bias f4 [10]
00000000: 70cf c13e df0f cbbd 7edd a23d 8abd d03e
00000010: 551a ad3e 97f2 ad3e c521 8f3e f5d5 c13e
00000020: 504a b33e 9d99 b93e
0.37853575 -0.099151365 0.079524025 0.40769607 0.33809152 0.33974144 0.27955452 0.3785855
0.35017633 0.3625001

layers.4.weight f4 [1, 10]
00000000: 45c3 c93e d078 9d3c 4923 8e3d 1d64 e03e
00000010: dc05 a63e c67a c63e 9e2f b23e 851f f73e
00000020: 1f71 c33e 52a5 bf3e
0.3940679 0.019222647 0.06940324 0.4382638 0.32426345 0.38765544 0.34801954 0.48266235
0.38172242 0.37430817
