models/model_7.pt (torch, 2647 bytes, 5 tensors)

layers.0.weight f4 [10, 1]
0.14197275 0.14348581 0.1430644 0.14475366 0.14300914 0.14717023 0.13901584 0.13765064
0.1392411 0.13833424
00000000: 4e61 113e f2ed 123e 797f 123e 4e3a 143e
00000010: fd70 123e cbb3 163e 2b5a 0e3e 4af4 0c3e
00000020: 3895 0e3e 7ea7 0d3e

layers.0.bias f4 [10]
0.14218064 0.1437572 0.1431452 0.14495039 0.14338021 0.14752693 0.13902088 0.13757236
0.13926396 0.13887076
00000000: cd97 113e 1635 133e a894 123e e06d 143e
00000010: 43d2 123e 4d11 173e 7d5b 0e3e c5df 0c3e
00000020: 369b 0e3e 2334 0e3e

layers.2.weight f4 [10, 10]
0.12062643 0.119932316 0.116293885 0.12487141 0.096981265 0.13207838 0.08953918 0.08928249
0.09953717 0.10889777 0.1367681 0.13526952 0.11556766 0.13030143 0.102274075 0.13695526
0.10110416 0.08507393 0.10271843 0.11367755 0.13507856 0.13480559 0.13790086 0.13971223
0.13265938 0.14115731 0.12783803 0.12649658 0.12761371 0.1329878 0.12677054 0.12831047
0.1250977 0.12675291 0.10866108 0.12858143 0.11082506 0.09504247 0.121513605 0.11780989
0.12361701 0.12624958 0.13572207 0.1290628 0.113554195 0.13482857 0.11970047 0.10595532
0.12568781 0.120576724 0.14538251 0.14367849 0.1508657 0.13826023 0.1251638 0.1332567
0.13284613 0.12192229 0.14437774 0.1420279 0.12038612 0.12757488 0.11780045 0.12714498
0.1144021 0.14162354 0.10811303 0.111158594 0.11167298 0.120061435 0.13391876 0.14251155
0.1291044 0.134756 0.13399687 0.15220158 0.13888976 0.13374826 0.13998589 0.13542835
0.12788303 0.12579165 0.122592166 0.12385591 0.09560061 0.13221975 0.11156056 0.078153186
0.10871043 0.109013595 0.14770488 0.16438217 0.13843799 0.14605436 0.14534834 0.16744746
0.14223862 0.14147173 0.13274503 0.14910823
00000000: fd0a f73d 139f f53d 7d2b ee3d 95bc ff3d
00000010: 1d9e c63d 8e3f 073e 5160 b73d bdd9 b63d
00000020: 25da cb3d cb05 df3d f00c 0c3e 1884 0a3e
00000030: bdae ec3d bd6d 053e 1275 d13d 003e 0c3e
00000040: b30f cf3d 3e3b ae3d 0a5e d23d c6cf e83d
00000050: 0952 0a3e 7a0a 0a3e e235 0d3e b910 0f3e
00000060: dcd7 073e 8b8b 103e f9e7 023e 5288 013e
00000070: 2bad 023e f42d 083e 23d0 013e d263 033e
00000080: 9d19 003e 84cb 013e b389 de3d daaa 033e
00000090: 40f8 e23d a0a5 c23d 20dc f83d 5046 f13d
000000a0: ea2a fd3d 9247 013e bafa 0a3e 0a29 043e
000000b0: 1a8f e83d 8010 0a3e 8525 f53d 1aff d83d
000000c0: 4eb4 003e eef0 f63d 27df 143e 7420 133e
000000d0: 8a7c 1a3e 1794 0d3e f02a 003e 7274 083e
000000e0: d108 083e 65b2 f93d c2d7 133e c36f 113e
000000f0: 008d f63d fda2 023e 5d41 f13d 4b32 023e
00000100: a64b ea3d c305 113e 5d6a dd3d 1ea7 e33d
00000110: ceb4 e43d c5e2 f53d 0022 093e 8cee 113e
00000120: f233 043e 7afd 093e 7a36 093e bbda 1b3e
00000130: 1e39 0e3e 4ef5 083e 7658 0f3e bbad 0a3e
00000140: c5f3 023e 87cf 003e 9a11 fb3d 2ba8 fd3d
00000150: 41ca c33d 9d64 073e dd79 e43d c70e a03d
00000160: 93a3 de3d 8542 df3d f33f 173e cd53 283e
00000170: b0c2 0d3e 468f 153e 32d6 143e 5977 2b3e
00000180: 00a7 113e f7dd 103e 50ee 073e d4af 183e

layers.2.bias f4 [10]
0.095127285 0.10641344 0.12401724 0.10227338 0.11114414 0.13057826 0.11485408 0.13423145
0.10298766 0.14854701
00000000: 18d2 c23d 4aef d93d c0fc fd3d b574 d13d
00000010: 8a9f e33d 4fb6 053e 9e38 eb3d f873 093e
00000020: 32eb d23d b51c 183e

layers.4.weight f4 [1, 10]
0.1186647 0.12881719 0.13542107 0.1246259 0.13122156 0.14323476 0.13048159 0.14733899
0.12397553 0.1610589
00000000: 7a06 f33d a7e8 033e d2ab 0a3e dd3b ff3d
00000010: f25e 063e 22ac 123e f79c 053e 08e0 163e
00000020: e2e6 fd3d a0ec 243e
