models/model_server.pt (torch, 2647 bytes, 5 tensors)

layers.0.weight f4 [10, 1]
-0.2068435 -1.0876956 0.12524591 -0.83377635 0.46523237 0.85022676 -0.85061824 -0.64064133
0.9391818 0.22360888
00000000: c8ce 53be 9c39 8bbf 7740 003e 5e72 55bf
00000010: f032 ee3e 76a8 593f 1ec2 59bf 1201 24bf
00000020: 386e 703f baf9 643e

layers.0.bias f4 [10]
-0.8693298 0.28547835 0.42898238 -0.611729 -0.9948065 0.9845873 -0.8498864 -0.30139482
0.8530866 0.65644443
00000000: 668c 5ebf 382a 923e 94a3 db3e 469a 1cbf
00000010: a4ab 7ebf ea0d 7c3f 2892 59bf 6c50 9abe
00000020: e263 5a3f be0c 283f

layers.2.weight f4 [10, 10]
-0.27479467 0.12916678 0.23406664 -0.20873737 0.19053163 -0.29322326 0.29087946 -0.07179294
-0.12178719 -0.076399885 -0.088395126 -0.30221984 -0.05837097 -0.13199717 0.16685513 -0.1293548
-0.095133364 0.30139193 -0.099786416 0.22458486 0.10367029 0.01632859 0.5686143 0.28775784
-0.21732184 0.41568324 -0.04895445 0.23224653 0.7878403 0.3835978 0.03408679 -0.08220966
0.5351506 0.039731696 0.13273546 0.63785344 -0.085206084 -0.23703617 0.7914112 0.45092344
-0.21534216 0.39247414 0.18233648 0.25341088 -0.19925545 0.5676513 0.19514193 -0.042724032
0.602836 0.5052307 -0.10237923 -0.10676916 -0.020606618 0.21033552 0.09875849 -0.029602021
0.25664103 0.16575927 -0.2244443 0.25374138 0.19390053 -0.15295617 -0.21809268 0.31412727
0.24171421 -0.19554095 -0.16097605 0.26010928 -0.17666118 0.106698625 -0.14926732 -0.051158853
0.11110961 -0.12250442 0.21802509 -0.14932981 0.07960755 0.30061087 -0.01666374 0.21178831
0.14626144 0.09676299 0.15578651 -0.01717134 -0.14140965 -0.42647845 0.14227687 0.038734943
0.115290284 -0.4563173 0.27296028 -0.0908622 -0.13473754 -0.012281663 0.26911804 0.3212102
-0.10597804 0.056638855 0.2991895 -0.12348841
00000000: e3b1 8cbe 4c44 043e 2aaf 6f3e 40bf 55be
00000010: b91a 433e 5c21 96be 27ee 943e 2d08 93bd
00000020: 906b f9bd 8b77 9cbd 8108 b5bd 8fbc 9abe
00000030: 6616 6fbd 442a 07be 12dc 2a3e 9675 04be
00000040: 48d5 c2bd 0b50 9a3e d25c ccbd 93f9 653e
00000050: 1751 d43d 89c3 853c b590 113f ff54 933e
00000060: 9e89 5ebe 6fd4 d43e 7684 48bd 09d2 6d3e
00000070: e7af 493f ee66 c43e 979e 0b3d 8a5d a8bd
00000080: a1ff 083f b4bd 223d ceeb 073e 5d4a 233f
00000090: 8780 aebd 9cb9 72be ed99 4a3f 70df e63e
000000a0: a882 5cbe 5ff2 c83e 6ab6 3a3e 12bf 813e
000000b0: 9f09 4cbe 9851 113f 49d3 473e 65ff 2ebd
000000c0: 7653 1a3f cd56 013f 34ac d1bd caa9 dabd
000000d0: 36cf a8bc 3262 573e e441 ca3d f07f f2bc
000000e0: 7466 833e ccbc 293e bad4 65be 64ea 813e
000000f0: dc8d 463e 8ba0 1cbe b053 5fbe 4ad5 a03e
00000100: ee83 773e e33b 48be e8d6 24be 0b2d 853e
00000110: abe6 34be cf84 da3d 88d9 18be f28b 51bd
00000120: 6f8d e33d 99e3 fabd f841 5f3e eae9 18be
00000130: 4809 a33d abe9 993e 6582 88bc 09df 583e
00000140: 8fc5 153e ad2b c63d 8086 1f3e e9aa 8cbc
00000150: b1cd 10be 625b dabe 07b1 113e 88a8 1e3d
00000160: 501d ec3d 6ca2 e9be 73c1 8b3e f615 babd
00000170: a3f8 09be 0739 49bc d7c9 893e aa75 a43e
00000180: 040b d9bd 25fe 673d 5e2f 993e 7ee7 fcbd

layers.2.bias f4 [10]
-0.14137064 -0.27821517 0.59168744 0.321812 0.41643444 -0.29958838 -0.281262 -0.12102235
0.057634935 0.41987562
00000000: 77c3 10be 3872 8ebe d478 173f 8bc4 a43e
00000010: e536 d53e a663 99be 9301 90be 91da f7bd
00000020: 9c12 6c3d f0f9 d63e

layers.4.weight f4 [1, 10]
-0.14514515 -0.023295868 0.6350929 0.659145 0.5234312 0.24329102 -0.023248747 -0.23281436
-0.1764245 0.26669148
00000000: eea0 14be fad6 bebc 7395 223f babd 283f
00000010: 96ff 053f 4821 793e 2874 bebc e366 6ebe
00000020: a0a8 34be c98b 883e
