models/model_11.pt (torch, 2647 bytes, 5 tensors)

layers.0.weight f4 [10, 1]
0.2019777 0.35272115 0.37263092 0.36481974 -0.041913487 0.29328564 0.51215905 0.106597655
0.40656146 0.4106519
00000000: 3ed3 4e3e de97 b43e 7bc9 be3e a7c9 ba3e
00000010: 7aad 2bbd 8929 963e db1c 033f df4f da3d
00000020: d328 d03e f740 d23e

layers.0.bias f4 [10]
0.28935763 0.32602766 0.13664098 0.29689857 -0.0046245395 0.47402975 0.5429345 0.049217302
0.21678069 0.1875115
00000000: af26 943e 19ed a63e 9deb 0b3e 1703 983e
00000010: 7389 97bb 07b4 f23e c1fd 0a3f 1598 493d
00000020: c2fb 5d3e 0403 403e

layers.2.weight f4 [10, 10]
0.28537998 0.32837042 0.33730277 0.2869363 0.03467808 0.37006947 0.33443594 0.10086138
0.3430594 0.25470048 -0.05682005 -0.093062714 -0.12034922 -0.04925289 0.050495457 -0.10131587
-0.10804523 -0.0701584 -0.07893029 -0.1082699 0.026213022 0.08626961 0.12958343 0.072431654
0.0049543483 0.04857743 0.07540884 0.0073582777 0.08912393 0.05025478 0.28133386 0.34189123
0.29128456 0.34932935 0.10076472 0.32650292 0.41276613 0.09145038 0.28520197 0.3482756
0.27869982 0.27650586 0.26584423 0.29776478 0.051884722 0.33510715 0.2760666 0.11093852
0.2758827 0.24607687 0.29794657 0.27444562 0.22790965 0.2568871 0.0008766877 0.35015866
0.33820617 0.08094084 0.29164556 0.28754196 0.20418353 0.30919603 0.18672632 0.2936752
0.006087003 0.30219668 0.33510256 0.05271642 0.29723898 0.27284157 0.2894278 0.3480596
0.29013485 0.33335626 0.009646869 0.37284237 0.41937727 0.05892118 0.34832492 0.30955637
0.25888762 0.3131447 0.29524025 0.30882978 0.023632245 0.3611369 0.37886623 0.0887061
0.2871254 0.39154384 0.19398984 0.28788108 0.199449 0.29412547 0.03452909 0.3788313
0.38186926 0.06956703 0.26831284 0.28183916
00000000: 531d 923e 2b20 a83e f3b2 ac3e 51e9 923e
00000010: 9a0a 0e3d bf79 bd3e 303b ab3e 6990 ce3d
00000020: 7ba5 af3e 1a68 823e 24bc 68bd aa97 bebd
00000030: a779 f6bd 66bd 49bd 53d4 4e3d b27e cfbd
00000040: d146 ddbd 35af 8fbd 34a6 a1bd 9cbc ddbd
00000050: b1bc d63c 1fae b03d 85b1 043e 0c57 943d
00000060: 1658 a23b 21f9 463d f36f 9a3d b51d f13b
00000070: 9b86 b63d f5d7 4d3d fe0a 903e 5e0c af3e
00000080: 4023 953e 4cdb b23e bc5d ce3d 642b a73e
00000090: 1556 d33e 564a bb3d fe05 923e 2e51 b23e
000000a0: beb1 8e3e 2d92 8d3e bc1c 883e a074 983e
000000b0: 1385 543d 2a93 ab3e 9a58 8d3e bc33 e33d
000000c0: 7f40 8d3e 93fb 7b3e 748c 983e 2384 8c3e
000000d0: 2661 693e b586 833e 84d1 653a ff47 b33e
000000e0: 5c29 ad3e 50c4 a53d 9152 953e b338 933e
000000f0: 7d15 513e f14e 9e3e 2f35 3f3e 995c 963e
00000100: 7b75 c73b 86b9 9a3e 9092 ab3e 2ced 573d
00000110: b52f 983e e4b1 8b3e e12f 943e de34 b23e
00000120: 8e8c 943e acad aa3e e70d 1e3c 32e5 be3e
00000130: 9eb8 d63e 5657 713d a557 b23e 2c7e 9e3e
00000140: eb8c 843e 8154 a03e bb29 973e f01e 9e3e
00000150: 6998 c13c f0e6 b83e c1fa c13e 8bab b53d
00000160: 1a02 933e 6f78 c83e 46a5 463e 2665 933e
00000170: 5c3c 4c3e 9d97 963e 606e 0d3d 2df6 c13e
00000180: 5e84 c33e 2979 8e3d 4d60 893e 394d 903e

layers.2.bias f4 [10]
0.37853572 -0.09915138 0.07952403 0.40769598 0.33809152 0.3397414 0.27955452 0.3785855
0.35017636 0.36250007
00000000: 6fcf c13e e10f cbbd 7fdd a23d 87bd d03e
00000010: 551a ad3e 96f2 ad3e c521 8f3e f5d5 c13e
00000020: 514a b33e 9c99 b93e

layers.4.weight f4 [1, 10]
0.3940679 0.019222647 0.06940322 0.43826377 0.32426342 0.38765538 0.3480195 0.48266238
0.38172245 0.3743081
00000000: 45c3 c93e d078 9d3c 4723 8e3d 1c64 e03e
00000010: db05 a63e c47a c63e 9d2f b23e 861f f73e
00000020: 2071 c33e 50a5 bf3e
