models/model_1.pt (torch, 2647 bytes, 5 tensors)

layers.0.weight f4 [10, 1]
-0.023640946 0.34974235 0.107308686 1.0677025 0.26973665 0.40592808 0.45989516 -0.06776632
0.373865 -0.24757838
00000000: a8aa c1bc 6e11 b33e a8c4 db3d 7aaa 883f
00000010: ec1a 8a3e ced5 cf3e 6177 eb3e 12c9 8abd
00000020: 3c6b bf3e 3085 7dbe

layers.0.bias f4 [10]
-0.24612802 0.71019536 -0.3052759 0.22655913 0.659703 0.3620982 0.119072124 -0.5582584
0.40322673 0.2119918
00000000: fc08 7cbe 5dcf 353f 1f4d 9cbe 1eff 673e
00000010: 4ce2 283f ef64 b93e 16dc f33d 06ea 0ebf
00000020: bc73 ce3e 6114 593e

layers.2.weight f4 [10, 10]
-0.18115035 0.30564725 -0.038228244 0.49729508 0.4991635 0.3783397 0.15495571 0.18729202
0.077409215 0.05841134 -0.12616813 0.2992072 0.15243718 0.35621208 0.3603515 0.31385458
0.326355 0.035658304 0.24451873 0.2463583 0.12599352 0.27418572 0.081158414 0.45612752
0.5019006 0.34693342 0.07657398 0.04587038 0.42906272 0.44237155 0.021485643 0.046305094
0.20205995 -0.03340837 -0.08753301 -0.07778999 -0.08835518 0.060869537 -0.070725836 -0.044629883
-0.082990885 0.25136283 0.007985975 0.48503587 0.2588818 0.276014 0.18697712 0.07357258
0.31704623 0.0067367293 0.10633686 0.28579032 -0.0097984355 0.24941924 0.25906938 0.15840918
0.11802863 0.10314521 0.26772693 0.48745427 0.04991786 0.48394573 -0.10475632 0.31911808
0.46257913 0.43137348 0.43047014 -0.05903257 0.31712094 0.4216969 0.005830316 0.008626954
0.09771238 -0.0061238073 -0.11668919 -0.10882297 -0.18036442 0.036248505 -0.21080154 0.08739577
0.18085884 0.37488565 0.097019985 0.3097027 0.54540336 0.37933505 0.28323263 0.20172864
0.3500336 0.37771016 0.030221157 0.21924064 -0.019261166 0.18745673 0.26586097 0.20944771
0.3526175 -0.15312922 0.35868764 0.5448666
00000000: 7a7f 39be cc7d 9c3e 3895 1cbd 769d fe3e
00000010: 5c92 ff3e beb5 c13e b6ac 1e3e 7bc9 3f3e
00000020: b988 9e3d bb40 6f3d 3832 01be b031 993e
00000030: 7e18 1c3e 6e61 b63e fe7f b83e 8cb1 a03e
00000040: 0118 a73e 710e 123d 1e63 7a3e 5a45 7c3e
00000050: 7204 013e 1262 8c3e 6236 a63d 8c89 e93e
00000060: 8f7c 003f 42a1 b13e d2d2 9c3d 94e2 3b3d
00000070: 1cae db3e 867e e23e a902 b03c 69aa 3d3d
00000080: cee8 4e3e 37d7 08bd 8244 b3bd 5c50 9fbd
00000090: 90f3 b4bd 5652 793d b5d8 90bd d3cd 36bd
000000a0: 20f7 a9bd a1b2 803e 9bd7 023c 9f56 f83e
000000b0: 288c 843e b551 8d3e ee76 3f3e 39ad 963d
000000c0: e253 a23e c8bf dc3b 24c7 d93d 1c53 923e
000000d0: 9e89 20bc c267 7f3e bea4 843e 0436 223e
000000e0: ffb8 f13d cc3d d33d 8113 893e 9b93 f93e
000000f0: ac76 4c3d bcc7 f73e 7b8a d6bd 7263 a33e
00000100: 2cd7 ec3e fcdc dc3e 9566 dc3e 23cc 71bd
00000110: ad5d a23e a8e8 d73e 3c0c bf3b 1158 0d3c
00000120: 6e1d c83d 38aa c8bb befa eebd 94de debd
00000130: 73b1 38be 5079 143d 5cdc 57be 8efc b23d
00000140: 0f33 393e 03f1 bf3e 6ab2 c63d 5a91 9e3e
00000150: 8e9f 0b3f 3438 c23e de03 913e f491 4e3e
00000160: 9b37 b33e 3a63 c13e 5c92 f73c 9e80 603e
00000170: 98c9 9dbc a8f4 3f3e ee1e 883e 7679 563e
00000180: 488a b43e e8cd 1cbe e8a5 b73e 617c 0b3f

layers.2.bias f4 [10]
0.22781113 0.31286696 0.333243 -0.040533032 0.34382194 0.25559598 0.49238667 -0.051462293
0.40707245 0.31686896
00000000: 5247 693e 1930 a03e d49e aa3e f705 26bd
00000010: 6e09 b03e 7add 823e 1b1a fc3e 20ca 52bd
00000020: cd6b d03e a63c a23e

layers.4.weight f4 [1, 10]
0.36598277 0.35090286 0.42759633 0.060814306 0.34108752 0.30065638 0.48082465 -0.099561974
0.41317415 0.33192074
00000000: 1862 bb3e 8aa9 b33e e8ed da3e 6c18 793d
00000010: 06a3 ae3e a2ef 993e a62e f63e 26e7 cbbd
00000020: 908b d33e 84f1 a93e
