models/model_6.pt (torch, 2647 bytes, 5 tensors)

layers.0.weight f4 [10, 1]
00000000: 5de8 263e 749f 283e 7317 283e 2667 293e
00000010: 0f4a 283e 0ed1 2b3e a890 233e 0b1d 213e
00000020: cdbc 233e 3ef8 223e
0.16299577 0.16467077 0.16415195 0.16543254 0.16434501 0.16778967 0.1597315 0.15733735
0.1598999 0.1591501

layers.0.bias f4 [10]
00000000: 223c 273e 5f18 293e 533b 283e 4ede 293e
00000010: caf3 283e b055 2c3e 81af 233e 982a 213e
00000020: eee8 233e 0aa7 233e
0.16331533 0.16513203 0.1642888 0.16588709 0.16499248 0.16829562 0.15984918 0.15738904
0.16006824 0.15981689

layers.2.weight f4 [10, 10]
00000000: f40f 0a3e e27f 033e d8a3 083e a8d1 113e
00000010: f2ea c43d 2c10 153e 5267 c43d 6f9e b43d
00000020: f28a e93d ed5d ec3d 5db3 1d3e f23e 1a3e
00000030: 0b79 0c3e 5f8b 193e cefa e53d 2bfc 1e3e
00000040: f8df e23d b622 cc3d 4ec3 0c3e dbe7 0c3e
00000050: 62a2 1e3e e0fb 1d3e 9c68 213e 437a 233e
00000060: aa72 1c3e 5acd 243e 5ab8 183e 3631 163e
00000070: 2b99 163e ab86 1b3e 9d79 163e a160 183e
00000080: aef1 093e 9f6b 153e 5a03 f73d f43e 183e
00000090: edb8 f33d a8a0 d43d 7980 0f3e 95c1 093e
000000a0: 4611 143e fe0f 163e da41 1f3e 9375 183e
000000b0: 3217 073e 1b3d 1e3e 15a3 0c3e 6291 003e
000000c0: 20b8 133e 8eab 0d3e 3f0b 293e 2072 253e
000000d0: 9345 2f3e 1a8b 203e 028b 0a3e 292e 1b3e
000000e0: ca8b 133e d4ad 0c3e 64f9 283e 4f73 233e
000000f0: cd57 0c3e 6e1e 0f3e 6b19 0a3e dd26 163e
00000100: 5633 fa3d 0665 203e e2ca 003e 7203 ea3d
00000110: 2c69 033e 6a8d 033e 3cf7 1d3e b6bc 263e
00000120: ca1c 163e 6445 1e3e 91e4 1d3e ae5e 313e
00000130: eea6 213e a853 1d3e f203 243e 760f 1e3e
00000140: a67f 143e 8c4d 0e3e 5e19 143e 8eb4 123e
00000150: 9348 d43d f50f 1a3e deb7 ee3d 6252 b43d
00000160: fc77 0a3e 8f60 053e a815 2e3e 2840 3e3e
00000170: 5244 273e 97a9 2c3e d6f4 2b3e 7a9a 413e
00000180: 121d 2e3e b314 283e 5adb 233e 0192 2f3e
0.13482648 0.12841752 0.13343751 0.14240134 0.09615125 0.1455695 0.09590019 0.08819281
0.11403455 0.115413524 0.15400453 0.15063074 0.13718049 0.14994572 0.11229478 0.15525882
0.11077875 0.09967558 0.13746378 0.13760321 0.15491632 0.15428114 0.15762562 0.15964608
0.15278116 0.1609396 0.14914075 0.1466721 0.14706866 0.1518809 0.1469483 0.14880611
0.134711 0.14591835 0.12061186 0.14867765 0.11900506 0.10382205 0.14013852 0.13452752
0.14459714 0.14654538 0.15552464 0.14888601 0.13192442 0.15452997 0.13734086 0.12555459
0.14425707 0.13834974 0.16508196 0.16156816 0.17116384 0.15678063 0.1352959 0.15154327
0.14408794 0.13738185 0.16501385 0.15961955 0.13705368 0.13976452 0.13486259 0.14663263
0.12216823 0.15663537 0.12577394 0.114264384 0.12833089 0.12846914 0.15426344 0.16282925
0.1465942 0.15456158 0.15419222 0.17321274 0.15786335 0.15363944 0.1601713 0.15435585
0.14501819 0.1389677 0.14462802 0.14326689 0.10365405 0.1504515 0.11656164 0.08804776
0.13522333 0.13025115 0.17000449 0.18579161 0.16334656 0.16861568 0.16792616 0.18906584
0.17003277 0.16414146 0.16001645 0.1714554

layers.2.bias f4 [10]
00000000: 2ec7 d93d 5062 fe3d 1b51 113e b66f eb3d
00000010: 9a5b 043e 9ab1 173e e87c 053e 413f 1e3e
00000020: 48e8 f43d 6316 313e
0.10633694 0.12421095 0.14191096 0.114959165 0.12925568 0.14813843 0.13035929 0.15453817
0.11958367 0.17293696

layers.4.weight f4 [1, 10]
00000000: a37b 093e d465 1a3e 0ba9 1e3e ce0c 113e
00000010: 15f3 193e 1893 273e 4d71 143e 42a9 2c3e
00000020: 2771 143e 5f55 3b3e
0.1342607 0.15077907 0.15494172 0.14165041 0.15034135 0.16364706 0.14496346 0.16861442
0.14496289 0.18294285
