models/model_9.pt (torch, 2647 bytes, 5 tensors)

layers.0.weight f4 [10, 1]
0	0x3e4ed33d	0.20197769
1	0x3eb497dd	0.35272112
2	0x3ebec97a	0.3726309
3	0x3ebac9a7	0.36481974
4	0xbd2bad77	-0.041913476
5	0x3e962986	0.29328555
6	0x3f031cdc	0.5121591
7	0x3dda4fe1	0.10659767
8	0x3ed028d5	0.40656152
9	0x3ed240f7	0.4106519

layers.0.bias f4 [10]
0	0x3e9426ae	0.2893576
1	0x3ea6ed17	0.3260276
2	0x3e0beb9d	0.13664098
3	0x3e980315	0.2968985
4	0xbb978972	-0.004624539
5	0x3ef2b409	0.4740298
6	0x3f0afdc0	0.5429344
7	0x3d499816	0.049217306
8	0x3e5dfbc5	0.21678074
9	0x3e400302	0.18751147

layers.2.weight f4 [10, 10]
0	0x3e921d52	0.28537995
1	0x3ea8202c	0.32837045
2	0x3eacb2f3	0.33730277
3	0x3e92e951	0.2869363
4	0x3d0e0a9b	0.034678083
5	0x3ebd79be	0.37006944
6	0x3eab3b2f	0.3344359
7	0x3dce906a	0.100861385
8	0x3eafa57c	0.34305942
9	0x3e82681a	0.25470048
10	0xbd68bc22	-0.056820042
11	0xbdbe97ab	-0.09306272
12	0xbdf679a7	-0.12034922
13	0xbd49bd65	-0.049252886
14	0x3d4ed453	0.050495457
15	0xbdcf7eb1	-0.10131586
16	0xbddd46d0	-0.10804522
17	0xbd8faf36	-0.07015841
18	0xbda1a634	-0.07893029
19	0xbdddbc9c	-0.1082699
20	0x3cd6bcb0	0.02621302
21	0x3db0ae1f	0.08626961
22	0x3e04b185	0.12958343
23	0x3d94570c	0.072431654
24	0x3ba25815	0.004954348
25	0x3d46f921	0.04857743
26	0x3d9a6ff4	0.075408846
27	0x3bf11db6	0.007358278
28	0x3db6869b	0.08912393
29	0x3d4dd7f6	0.050254785
30	0x3e900afe	0.28133386
31	0x3eaf0c5e	0.34189123
32	0x3e95233f	0.29128453
33	0x3eb2db4d	0.34932938
34	0x3dce5dbc	0.10076472
35	0x3ea72b64	0.32650292
36	0x3ed35616	0.41276616
37	0x3dbb4a59	0.0914504
38	0x3e9205ff	0.285202
39	0x3eb2512f	0.34827563
40	0x3e8eb1bf	0.27869985
41	0x3e8d922b	0.2765058
42	0x3e881cbd	0.26584426
43	0x3e9874a0	0.29776478
44	0x3d548514	0.051884726
45	0x3eab9329	0.33510712
46	0x3e8d5899	0.27606657
47	0x3de333bc	0.11093852
48	0x3e8d4080	0.27588272
49	0x3e7bfb95	0.2460769
50	0x3e988c74	0.29794657
51	0x3e8c8423	0.27444562
52	0x3e696129	0.2279097
53	0x3e8386b5	0.2568871
54	0x3a65d184	0.0008766877
55	0x3eb347ff	0.35015866
56	0x3ead295b	0.33820614
57	0x3da5c44e	0.08094083
58	0x3e95528f	0.2916455
59	0x3e9338b4	0.287542
60	0x3e51157d	0.20418353
61	0x3e9e4ef2	0.30919605
62	0x3e3f352f	0.18672632
63	0x3e965c99	0.2936752
64	0x3bc7757b	0.006087003
65	0x3e9ab987	0.3021967
66	0x3eab9291	0.3351026
67	0x3d57ed2d	0.052716423
68	0x3e982fb6	0.297239
69	0x3e8bb1e4	0.27284157
70	0x3e942fe2	0.28942782
71	0x3eb234de	0.3480596
72	0x3e948c8e	0.29013485
73	0x3eaaadad	0.3333563
74	0x3c1e0de7	0.009646869
75	0x3ebee534	0.37284243
76	0x3ed6b89d	0.41937724
77	0x3d715757	0.058921184
78	0x3eb257a4	0.3483249
79	0x3e9e7e2e	0.30955642
80	0x3e848ceb	0.25888762
81	0x3ea05481	0.3131447
82	0x3e9729bb	0.29524025
83	0x3e9e1eef	0.30882975
84	0x3cc19869	0.023632245
85	0x3eb8e6ef	0.36113688
86	0x3ec1fac0	0.3788662
87	0x3db5ab8c	0.088706106
88	0x3e930219	0.28712538
89	0x3ec8786d	0.39154378
90	0x3e46a546	0.19398984
91	0x3e936526	0.28788108
92	0x3e4c3c5a	0.19944897
93	0x3e96979c	0.29412544
94	0x3d0d6e5f	0.034529086
95	0x3ec1f62c	0.37883127
96	0x3ec3845d	0.38186923
97	0x3d8e792a	0.06956704
98	0x3e89604e	0.26831287
99	0x3e904d39	0.28183916

layers.2.bias f4 [10]
0	0x3ec1cf6e	0.3785357
1	0xbdcb0fe0	-0.09915137
2	0x3da2dd7d	0.07952402
3	0x3ed0bd8a	0.40769607
4	0x3ead1a54	0.3380915
5	0x3eadf297	0.33974144
6	0x3e8f21c6	0.27955455
7	0x3ec1d5f5	0.3785855
8	0x3eb34a51	0.35017636
9	0x3eb9999d	0.3625001

layers.4.weight f4 [1, 10]
0	0x3ec9c345	0.3940679
1	0x3c9d78cf	0.019222645
2	0x3d8e2349	0.06940324
3	0x3ee0641c	0.43826377
4	0x3ea605dc	0.32426345
5	0x3ec67ac6	0.38765544
6	0x3eb22f9d	0.3480195
7	0x3ef71f85	0.48266235
8	0x3ec37121	0.38172248
9	0x3ebfa551	0.37430814
