models/model_4.pt (torch, 2647 bytes, 5 tensors)

layers.0.weight f4 [10, 1]
0	0x3e4ed33c	0.20197767
1	0x3eb497de	0.35272115
2	0x3ebec97b	0.37263092
3	0x3ebac9a6	0.3648197
4	0xbd2bad79	-0.041913483
5	0x3e962987	0.29328558
6	0x3f031cdc	0.5121591
7	0x3dda4fe0	0.10659766
8	0x3ed028d5	0.40656152
9	0x3ed240f6	0.41065186

layers.0.bias f4 [10]
0	0x3e9426ae	0.2893576
1	0x3ea6ed17	0.3260276
2	0x3e0beb9e	0.136641
3	0x3e980314	0.29689848
4	0xbb978971	-0.0046245386
5	0x3ef2b407	0.47402975
6	0x3f0afdc1	0.5429345
7	0x3d499815	0.049217302
8	0x3e5dfbc2	0.21678069
9	0x3e400302	0.18751147

layers.2.weight f4 [10, 10]
0	0x3e921d52	0.28537995
1	0x3ea8202b	0.32837042
2	0x3eacb2f4	0.3373028
3	0x3e92e951	0.2869363
4	0x3d0e0a9b	0.034678083
5	0x3ebd79c0	0.3700695
6	0x3eab3b2f	0.3344359
7	0x3dce906a	0.100861385
8	0x3eafa57b	0.3430594
9	0x3e82681b	0.2547005
10	0xbd68bc23	-0.056820046
11	0xbdbe97ab	-0.09306272
12	0xbdf679a9	-0.120349236
13	0xbd49bd64	-0.049252883
14	0x3d4ed450	0.050495446
15	0xbdcf7eb3	-0.10131588
16	0xbddd46d1	-0.10804523
17	0xbd8faf36	-0.07015841
18	0xbda1a633	-0.07893028
19	0xbdddbc9c	-0.1082699
20	0x3cd6bcb2	0.026213024
21	0x3db0ae1e	0.0862696
22	0x3e04b186	0.12958345
23	0x3d94570c	0.072431654
24	0x3ba25815	0.004954348
25	0x3d46f921	0.04857743
26	0x3d9a6ff3	0.07540884
27	0x3bf11db4	0.007358277
28	0x3db6869a	0.08912392
29	0x3d4dd7f6	0.050254785
30	0x3e900afe	0.28133386
31	0x3eaf0c5c	0.34189117
32	0x3e952340	0.29128456
33	0x3eb2db4c	0.34932935
34	0x3dce5dbd	0.10076473
35	0x3ea72b64	0.32650292
36	0x3ed35615	0.41276613
37	0x3dbb4a57	0.091450386
38	0x3e9205ff	0.285202
39	0x3eb2512f	0.34827563
40	0x3e8eb1bf	0.27869985
41	0x3e8d922b	0.2765058
42	0x3e881cbd	0.26584426
43	0x3e98749f	0.29776475
44	0x3d548513	0.051884722
45	0x3eab932a	0.33510715
46	0x3e8d5897	0.2760665
47	0x3de333bc	0.11093852
48	0x3e8d407f	0.2758827
49	0x3e7bfb94	0.24607688
50	0x3e988c74	0.29794657
51	0x3e8c8422	0.2744456
52	0x3e696126	0.22790965
53	0x3e8386b6	0.25688714
54	0x3a65d183	0.00087668764
55	0x3eb347fe	0.35015863
56	0x3ead295d	0.3382062
57	0x3da5c450	0.08094084
58	0x3e955290	0.29164553
59	0x3e9338b3	0.28754196
60	0x3e51157c	0.20418352
61	0x3e9e4ef1	0.30919603
62	0x3e3f3530	0.18672633
63	0x3e965c99	0.2936752
64	0x3bc7757c	0.0060870033
65	0x3e9ab987	0.3021967
66	0x3eab9291	0.3351026
67	0x3d57ed2d	0.052716423
68	0x3e982fb5	0.29723898
69	0x3e8bb1e4	0.27284157
70	0x3e942fe3	0.28942785
71	0x3eb234df	0.34805962
72	0x3e948c8f	0.29013488
73	0x3eaaadae	0.33335632
74	0x3c1e0de6	0.009646868
75	0x3ebee531	0.37284234
76	0x3ed6b89f	0.4193773
77	0x3d715757	0.058921184
78	0x3eb257a5	0.34832492
79	0x3e9e7e2d	0.3095564
80	0x3e848cec	0.25888765
81	0x3ea05481	0.3131447
82	0x3e9729bb	0.29524025
83	0x3e9e1ef1	0.3088298
84	0x3cc19869	0.023632245
85	0x3eb8e6ee	0.36113685
86	0x3ec1fac1	0.37886623
87	0x3db5ab8c	0.088706106
88	0x3e930219	0.28712538
89	0x3ec87871	0.3915439
90	0x3e46a545	0.19398983
91	0x3e936526	0.28788108
92	0x3e4c3c5a	0.19944897
93	0x3e96979c	0.29412544
94	0x3d0d6e60	0.03452909
95	0x3ec1f62d	0.3788313
96	0x3ec3845e	0.38186926
97	0x3d8e792b	0.06956705
98	0x3e89604d	0.26831284
99	0x3e904d39	0.28183916

layers.2.bias f4 [10]
0	0x3ec1cf6f	0.37853572
1	0xbdcb0fe0	-0.09915137
2	0x3da2dd7e	0.079524025
3	0x3ed0bd87	0.40769598
4	0x3ead1a54	0.3380915
5	0x3eadf297	0.33974144
6	0x3e8f21c6	0.27955455
7	0x3ec1d5f5	0.3785855
8	0x3eb34a51	0.35017636
9	0x3eb9999d	0.3625001

layers.4.weight f4 [1, 10]
0	0x3ec9c345	0.3940679
1	0x3c9d78ce	0.019222643
2	0x3d8e2349	0.06940324
3	0x3ee0641b	0.43826374
4	0x3ea605dc	0.32426345
5	0x3ec67ac6	0.38765544
6	0x3eb22f9f	0.34801957
7	0x3ef71f85	0.48266235
8	0x3ec3711f	0.38172242
9	0x3ebfa552	0.37430817
