models/model_18.pt (torch, 2647 bytes, 5 tensors)

layers.0.weight f4 [10, 1]
00000000: 3ed3 4e3e dd97 b43e 7bc9 be3e a9c9 ba3e
00000010: 79ad 2bbd 8729 963e dc1c 033f e14f da3d
00000020: d428 d03e f640 d23e
0.2019777 0.35272112 0.37263092 0.3648198 -0.041913483 0.29328558 0.5121591 0.10659767
0.4065615 0.41065186

layers.0.bias f4 [10]
00000000: ae26 943e 19ed a63e 9deb 0b3e 1503 983e
00000010: 7289 97bb 09b4 f23e c2fd 0a3f 1698 493d
00000020: c2fb 5d3e 0203 403e
0.2893576 0.32602766 0.13664098 0.2968985 -0.004624539 0.4740298 0.54293454 0.049217306
0.21678069 0.18751147

layers.2.weight f4 [10, 10]
00000000: 531d 923e 2b20 a83e f3b2 ac3e 52e9 923e
00000010: 9b0a 0e3d bf79 bd3e 2e3b ab3e 6990 ce3d
00000020: 7ba5 af3e 1a68 823e 22bc 68bd ab97 bebd
00000030: a779 f6bd 65bd 49bd 52d4 4e3d b27e cfbd
00000040: ce46 ddbd 36af 8fbd 34a6 a1bd 9dbc ddbd
00000050: b0bc d63c 1fae b03d 85b1 043e 0c57 943d
00000060: 1558 a23b 21f9 463d f36f 9a3d b51d f13b
00000070: 9a86 b63d f6d7 4d3d ff0a 903e 5e0c af3e
00000080: 4023 953e 4ddb b23e bc5d ce3d 632b a73e
00000090: 1556 d33e 574a bb3d fe05 923e 3051 b23e
000000a0: bfb1 8e3e 2c92 8d3e bc1c 883e a074 983e
000000b0: 1485 543d 2993 ab3e 9758 8d3e bd33 e33d
000000c0: 7f40 8d3e 94fb 7b3e 738c 983e 2284 8c3e
000000d0: 2661 693e b586 833e 84d1 653a ff47 b33e
000000e0: 5c29 ad3e 4fc4 a53d 9252 953e b438 933e
000000f0: 7c15 513e f04e 9e3e 3035 3f3e 995c 963e
00000100: 7d75 c73b 87b9 9a3e 9192 ab3e 2ced 573d
00000110: b62f 983e e4b1 8b3e e32f 943e df34 b23e
00000120: 8e8c 943e acad aa3e e60d 1e3c 32e5 be3e
00000130: 9eb8 d63e 5757 713d a557 b23e 2d7e 9e3e
00000140: eb8c 843e 8154 a03e bb29 973e f01e 9e3e
00000150: 6798 c13c efe6 b83e c0fa c13e 8dab b53d
00000160: 1a02 933e 6d78 c83e 45a5 463e 2665 933e
00000170: 5b3c 4c3e 9c97 963e 5f6e 0d3d 2cf6 c13e
00000180: 5d84 c33e 2a79 8e3d 4d60 893e 394d 903e
0.28537998 0.32837042 0.33730277 0.28693634 0.034678083 0.37006947 0.33443588 0.10086138
0.3430594 0.25470048 -0.056820042 -0.09306272 -0.12034922 -0.049252886 0.050495453 -0.10131587
-0.108045205 -0.07015841 -0.07893029 -0.10826991 0.02621302 0.08626961 0.12958343 0.072431654
0.004954348 0.04857743 0.07540884 0.0073582777 0.08912392 0.050254785 0.2813339 0.34189123
0.29128456 0.34932938 0.10076472 0.3265029 0.41276613 0.091450386 0.28520197 0.34827566
0.27869985 0.27650583 0.26584423 0.29776478 0.051884726 0.33510712 0.2760665 0.11093853
0.2758827 0.24607688 0.29794654 0.2744456 0.22790965 0.2568871 0.0008766877 0.35015866
0.33820617 0.080940835 0.2916456 0.287542 0.20418352 0.309196 0.18672633 0.2936752
0.0060870037 0.3021967 0.3351026 0.05271642 0.297239 0.27284157 0.28942785 0.34805962
0.29013485 0.33335626 0.009646868 0.37284237 0.41937727 0.058921184 0.34832492 0.3095564
0.25888762 0.3131447 0.29524025 0.30882978 0.023632241 0.36113688 0.3788662 0.08870611
0.2871254 0.39154378 0.19398983 0.28788108 0.19944899 0.29412544 0.034529086 0.37883127
0.38186923 0.06956704 0.26831284 0.28183916

layers.2.bias f4 [10]
00000000: 6dcf c13e e00f cbbd 7edd a23d 89bd d03e
00000010: 561a ad3e 96f2 ad3e c421 8f3e f5d5 c13e
00000020: 514a b33e 9c99 b93e
0.37853566 -0.09915137 0.079524025 0.40769604 0.33809155 0.3397414 0.2795545 0.3785855
0.35017636 0.36250007

layers.4.weight f4 [1, 10]
00000000: 45c3 c93e cf78 9d3c 4723 8e3d 1c64 e03e
00000010: dc05 a63e c57a c63e 9e2f b23e 851f f73e
00000020: 2171 c33e 51a5 bf3e
0.3940679 0.019222645 0.06940322 0.43826377 0.32426345 0.3876554 0.34801954 0.48266235
0.38172248 0.37430814
