models/model_10.pt (torch, 2647 bytes, 5 tensors)

layers.0.weight f4 [10, 1]
0.2019777 0.35272115 0.37263095 0.3648197 -0.041913483 0.29328555 0.5121591 0.10659766
0.4065615 0.41065186
00000000: 3ed3 4e3e de97 b43e 7cc9 be3e a6c9 ba3e
00000010: 79ad 2bbd 8629 963e dc1c 033f e04f da3d
00000020: d428 d03e f640 d23e

layers.0.bias f4 [10]
0.2893576 0.32602766 0.13664098 0.29689848 -0.004624539 0.4740298 0.54293454 0.049217306
0.2167807 0.18751147
00000000: ae26 943e 19ed a63e 9deb 0b3e 1403 983e
00000010: 7289 97bb 09b4 f23e c2fd 0a3f 1698 493d
00000020: c3fb 5d3e 0203 403e

layers.2.weight f4 [10, 10]
0.28537995 0.32837042 0.3373028 0.2869363 0.034678087 0.37006947 0.33443588 0.10086138
0.3430594 0.25470048 -0.05682005 -0.09306272 -0.12034921 -0.049252886 0.05049545 -0.10131586
-0.10804521 -0.07015841 -0.07893029 -0.10826991 0.026213022 0.08626961 0.12958343 0.072431654
0.0049543483 0.04857743 0.07540883 0.0073582777 0.08912392 0.05025478 0.2813339 0.3418912
0.29128453 0.34932938 0.10076472 0.32650292 0.41276613 0.09145038 0.28520197 0.3482757
0.27869985 0.2765058 0.26584423 0.29776478 0.051884722 0.33510715 0.2760665 0.11093851
0.27588272 0.24607688 0.29794657 0.27444562 0.22790965 0.25688714 0.0008766877 0.35015866
0.33820623 0.08094083 0.29164556 0.28754202 0.20418352 0.30919603 0.18672633 0.29367524
0.0060870033 0.3021967 0.33510262 0.052716423 0.29723898 0.27284154 0.28942782 0.34805962
0.29013482 0.3333563 0.009646867 0.37284237 0.41937733 0.05892118 0.34832492 0.3095564
0.25888765 0.31314468 0.29524025 0.30882984 0.023632241 0.36113685 0.3788662 0.0887061
0.2871254 0.39154384 0.19398983 0.2878811 0.19944899 0.2941254 0.034529086 0.37883133
0.38186926 0.06956705 0.26831284 0.2818391
00000000: 521d 923e 2b20 a83e f4b2 ac3e 51e9 923e
00000010: 9c0a 0e3d bf79 bd3e 2e3b ab3e 6990 ce3d
00000020: 7ba5 af3e 1a68 823e 24bc 68bd ab97 bebd
00000030: a679 f6bd 65bd 49bd 51d4 4e3d b17e cfbd
00000040: cf46 ddbd 36af 8fbd 34a6 a1bd 9dbc ddbd
00000050: b1bc d63c 1fae b03d 85b1 043e 0c57 943d
00000060: 1658 a23b 21f9 463d f26f 9a3d b51d f13b
00000070: 9a86 b63d f5d7 4d3d ff0a 903e 5d0c af3e
00000080: 3f23 953e 4ddb b23e bc5d ce3d 642b a73e
00000090: 1556 d33e 564a bb3d fe05 923e 3151 b23e
000000a0: bfb1 8e3e 2b92 8d3e bc1c 883e a074 983e
000000b0: 1385 543d 2a93 ab3e 9758 8d3e bb33 e33d
000000c0: 8040 8d3e 94fb 7b3e 748c 983e 2384 8c3e
000000d0: 2661 693e b686 833e 84d1 653a ff47 b33e
000000e0: 5e29 ad3e 4ec4 a53d 9152 953e b538 933e
000000f0: 7c15 513e f14e 9e3e 3035 3f3e 9a5c 963e
00000100: 7c75 c73b 87b9 9a3e 9292 ab3e 2ded 573d
00000110: b52f 983e e3b1 8b3e e22f 943e df34 b23e
00000120: 8d8c 943e adad aa3e e50d 1e3c 32e5 be3e
00000130: a0b8 d63e 5657 713d a557 b23e 2d7e 9e3e
00000140: ec8c 843e 8054 a03e bb29 973e f21e 9e3e
00000150: 6798 c13c eee6 b83e c0fa c13e 8bab b53d
00000160: 1a02 933e 6f78 c83e 45a5 463e 2765 933e
00000170: 5b3c 4c3e 9b97 963e 5f6e 0d3d 2ef6 c13e
00000180: 5e84 c33e 2b79 8e3d 4d60 893e 374d 903e

layers.2.bias f4 [10]
0.37853572 -0.09915137 0.07952403 0.40769604 0.33809155 0.3397414 0.2795545 0.37858546
0.35017636 0.3625001
00000000: 6fcf c13e e00f cbbd 7fdd a23d 89bd d03e
00000010: 561a ad3e 96f2 ad3e c421 8f3e f4d5 c13e
00000020: 514a b33e 9d99 b93e

layers.4.weight f4 [1, 10]
0.39406788 0.019222647 0.06940324 0.43826377 0.32426345 0.38765544 0.3480196 0.48266235
0.38172242 0.37430814
00000000: 44c3 c93e d078 9d3c 4923 8e3d 1c64 e03e
00000010: dc05 a63e c67a c63e a02f b23e 851f f73e
00000020: 1f71 c33e 51a5 bf3e
