models/model_26.pt (torch, 2647 bytes, 5 tensors)

layers.0.weight f4 [10, 1]
0	0x3e4ed33d	0.20197769
1	0x3eb497dc	0.3527211
2	0x3ebec97a	0.3726309
3	0x3ebac9a7	0.36481974
4	0xbd2bad77	-0.041913476
5	0x3e962987	0.29328558
6	0x3f031cdb	0.51215905
7	0x3dda4fdf	0.106597655
8	0x3ed028d4	0.4065615
9	0x3ed240f7	0.4106519

layers.0.bias f4 [10]
0	0x3e9426ae	0.2893576
1	0x3ea6ed19	0.32602766
2	0x3e0beb9d	0.13664098
3	0x3e980315	0.2968985
4	0xbb978973	-0.0046245395
5	0x3ef2b409	0.4740298
6	0x3f0afdc2	0.54293454
7	0x3d499816	0.049217306
8	0x3e5dfbc2	0.21678069
9	0x3e400304	0.1875115

layers.2.weight f4 [10, 10]
0	0x3e921d52	0.28537995
1	0x3ea8202a	0.3283704
2	0x3eacb2f3	0.33730277
3	0x3e92e951	0.2869363
4	0x3d0e0a9a	0.03467808
5	0x3ebd79c0	0.3700695
6	0x3eab3b2e	0.33443588
7	0x3dce9069	0.10086138
8	0x3eafa57c	0.34305942
9	0x3e82681a	0.25470048
10	0xbd68bc23	-0.056820046
11	0xbdbe97ac	-0.09306273
12	0xbdf679a9	-0.120349236
13	0xbd49bd64	-0.049252883
14	0x3d4ed450	0.050495446
15	0xbdcf7eb2	-0.10131587
16	0xbddd46cf	-0.10804521
17	0xbd8faf35	-0.0701584
18	0xbda1a634	-0.07893029
19	0xbdddbc9c	-0.1082699
20	0x3cd6bcaf	0.026213018
21	0x3db0ae1d	0.086269595
22	0x3e04b186	0.12958345
23	0x3d94570c	0.072431654
24	0x3ba25815	0.004954348
25	0x3d46f921	0.04857743
26	0x3d9a6ff4	0.075408846
27	0x3bf11db5	0.0073582777
28	0x3db6869b	0.08912393
29	0x3d4dd7f6	0.050254785
30	0x3e900aff	0.2813339
31	0x3eaf0c5d	0.3418912
32	0x3e952341	0.2912846
33	0x3eb2db4c	0.34932935
34	0x3dce5dbc	0.10076472
35	0x3ea72b65	0.32650295
36	0x3ed35616	0.41276616
37	0x3dbb4a59	0.0914504
38	0x3e9205ff	0.285202
39	0x3eb2512f	0.34827563
40	0x3e8eb1bf	0.27869985
41	0x3e8d922c	0.27650583
42	0x3e881cbc	0.26584423
43	0x3e98749f	0.29776475
44	0x3d548514	0.051884726
45	0x3eab932a	0.33510715
46	0x3e8d5899	0.27606657
47	0x3de333bd	0.11093853
48	0x3e8d407f	0.2758827
49	0x3e7bfb93	0.24607687
50	0x3e988c73	0.29794654
51	0x3e8c8422	0.2744456
52	0x3e696126	0.22790965
53	0x3e8386b5	0.2568871
54	0x3a65d183	0.00087668764
55	0x3eb347ff	0.35015866
56	0x3ead295d	0.3382062
57	0x3da5c44e	0.08094083
58	0x3e955291	0.29164556
59	0x3e9338b2	0.28754193
60	0x3e51157d	0.20418353
61	0x3e9e4ef1	0.30919603
62	0x3e3f3530	0.18672633
63	0x3e965c99	0.2936752
64	0x3bc7757c	0.0060870033
65	0x3e9ab986	0.30219668
66	0x3eab9292	0.33510262
67	0x3d57ed2d	0.052716423
68	0x3e982fb6	0.297239
69	0x3e8bb1e4	0.27284157
70	0x3e942fe1	0.2894278
71	0x3eb234df	0.34805962
72	0x3e948c8e	0.29013485
73	0x3eaaadad	0.3333563
74	0x3c1e0de6	0.009646868
75	0x3ebee532	0.37284237
76	0x3ed6b89f	0.4193773
77	0x3d715755	0.058921177
78	0x3eb257a5	0.34832492
79	0x3e9e7e2e	0.30955642
80	0x3e848cec	0.25888765
81	0x3ea05481	0.3131447
82	0x3e9729ba	0.29524022
83	0x3e9e1ef0	0.30882978
84	0x3cc19869	0.023632245
85	0x3eb8e6ef	0.36113688
86	0x3ec1fac0	0.3788662
87	0x3db5ab8d	0.08870611
88	0x3e93021a	0.2871254
89	0x3ec8786f	0.39154384
90	0x3e46a545	0.19398983
91	0x3e936527	0.2878811
92	0x3e4c3c59	0.19944896
93	0x3e96979c	0.29412544
94	0x3d0d6e60	0.03452909
95	0x3ec1f62c	0.37883127
96	0x3ec3845d	0.38186923
97	0x3d8e792a	0.06956704
98	0x3e89604d	0.26831284
99	0x3e904d39	0.28183916

layers.2.bias f4 [10]
0	0x3ec1cf6f	0.37853572
1	0xbdcb0fde	-0.09915136
2	0x3da2dd7f	0.07952403
3	0x3ed0bd87	0.40769598
4	0x3ead1a53	0.33809146
5	0x3eadf297	0.33974144
6	0x3e8f21c4	0.2795545
7	0x3ec1d5f5	0.3785855
8	0x3eb34a50	0.35017633
9	0x3eb9999d	0.3625001

layers.4.weight f4 [1, 10]
0	0x3ec9c346	0.39406794
1	0x3c9d78d0	0.019222647
2	0x3d8e2349	0.06940324
3	0x3ee0641d	0.4382638
4	0x3ea605dc	0.32426345
5	0x3ec67ac4	0.38765538
6	0x3eb22f9e	0.34801954
7	0x3ef71f85	0.48266235
8	0x3ec3711f	0.38172242
9	0x3ebfa551	0.37430814
