models/model_22.pt (torch, 2647 bytes, 5 tensors)

layers.0.weight f4 [10, 1]
0	0x3e4ed33e	0.2019777
1	0x3eb497de	0.35272115
2	0x3ebec97b	0.37263092
3	0x3ebac9a9	0.3648198
4	0xbd2bad77	-0.041913476
5	0x3e962987	0.29328558
6	0x3f031cdb	0.51215905
7	0x3dda4fe0	0.10659766
8	0x3ed028d5	0.40656152
9	0x3ed240f7	0.4106519

layers.0.bias f4 [10]
0	0x3e9426af	0.28935763
1	0x3ea6ed17	0.3260276
2	0x3e0beb9e	0.136641
3	0x3e980316	0.29689854
4	0xbb978972	-0.004624539
5	0x3ef2b407	0.47402975
6	0x3f0afdc1	0.5429345
7	0x3d499816	0.049217306
8	0x3e5dfbc2	0.21678069
9	0x3e400304	0.1875115

layers.2.weight f4 [10, 10]
0	0x3e921d53	0.28537998
1	0x3ea8202b	0.32837042
2	0x3eacb2f4	0.3373028
3	0x3e92e952	0.28693634
4	0x3d0e0a9a	0.03467808
5	0x3ebd79c0	0.3700695
6	0x3eab3b2f	0.3344359
7	0x3dce9069	0.10086138
8	0x3eafa57c	0.34305942
9	0x3e82681a	0.25470048
10	0xbd68bc24	-0.05682005
11	0xbdbe97aa	-0.093062714
12	0xbdf679a7	-0.12034922
13	0xbd49bd66	-0.04925289
14	0x3d4ed450	0.050495446
15	0xbdcf7eb1	-0.10131586
16	0xbddd46d0	-0.10804522
17	0xbd8faf36	-0.07015841
18	0xbda1a633	-0.07893028
19	0xbdddbc9b	-0.10826989
20	0x3cd6bcb0	0.02621302
21	0x3db0ae1e	0.0862696
22	0x3e04b186	0.12958345
23	0x3d94570c	0.072431654
24	0x3ba25816	0.0049543483
25	0x3d46f921	0.04857743
26	0x3d9a6ff4	0.075408846
27	0x3bf11db5	0.0073582777
28	0x3db68699	0.08912391
29	0x3d4dd7f5	0.05025478
30	0x3e900aff	0.2813339
31	0x3eaf0c5e	0.34189123
32	0x3e952340	0.29128456
33	0x3eb2db4d	0.34932938
34	0x3dce5dbd	0.10076473
35	0x3ea72b65	0.32650295
36	0x3ed35616	0.41276616
37	0x3dbb4a59	0.0914504
38	0x3e9205ff	0.285202
39	0x3eb25130	0.34827566
40	0x3e8eb1bf	0.27869985
41	0x3e8d922c	0.27650583
42	0x3e881cbc	0.26584423
43	0x3e98749f	0.29776475
44	0x3d548514	0.051884726
45	0x3eab932b	0.33510718
46	0x3e8d5899	0.27606657
47	0x3de333bd	0.11093853
48	0x3e8d407e	0.27588266
49	0x3e7bfb94	0.24607688
50	0x3e988c73	0.29794654
51	0x3e8c8423	0.27444562
52	0x3e696126	0.22790965
53	0x3e8386b5	0.2568871
54	0x3a65d183	0.00087668764
55	0x3eb347ff	0.35015866
56	0x3ead295d	0.3382062
57	0x3da5c44e	0.08094083
58	0x3e955291	0.29164556
59	0x3e9338b4	0.287542
60	0x3e51157d	0.20418353
61	0x3e9e4ef1	0.30919603
62	0x3e3f3530	0.18672633
63	0x3e965c99	0.2936752
64	0x3bc7757c	0.0060870033
65	0x3e9ab986	0.30219668
66	0x3eab9292	0.33510262
67	0x3d57ed2c	0.05271642
68	0x3e982fb4	0.29723895
69	0x3e8bb1e5	0.2728416
70	0x3e942fe2	0.28942782
71	0x3eb234df	0.34805962
72	0x3e948c8f	0.29013488
73	0x3eaaadad	0.3333563
74	0x3c1e0de6	0.009646868
75	0x3ebee534	0.37284243
76	0x3ed6b89f	0.4193773
77	0x3d715757	0.058921184
78	0x3eb257a5	0.34832492
79	0x3e9e7e2e	0.30955642
80	0x3e848cec	0.25888765
81	0x3ea05481	0.3131447
82	0x3e9729ba	0.29524022
83	0x3e9e1ef1	0.3088298
84	0x3cc19867	0.023632241
85	0x3eb8e6ef	0.36113688
86	0x3ec1fac1	0.37886623
87	0x3db5ab8d	0.08870611
88	0x3e93021a	0.2871254
89	0x3ec8786f	0.39154384
90	0x3e46a545	0.19398983
91	0x3e936527	0.2878811
92	0x3e4c3c57	0.19944893
93	0x3e96979d	0.29412547
94	0x3d0d6e5f	0.034529086
95	0x3ec1f62e	0.37883133
96	0x3ec3845e	0.38186926
97	0x3d8e792b	0.06956705
98	0x3e89604d	0.26831284
99	0x3e904d37	0.2818391

layers.2.bias f4 [10]
0	0x3ec1cf6e	0.3785357
1	0xbdcb0fde	-0.09915136
2	0x3da2dd80	0.07952404
3	0x3ed0bd89	0.40769604
4	0x3ead1a55	0.33809152
5	0x3eadf296	0.3397414
6	0x3e8f21c5	0.27955452
7	0x3ec1d5f5	0.3785855
8	0x3eb34a50	0.35017633
9	0x3eb9999d	0.3625001

layers.4.weight f4 [1, 10]
0	0x3ec9c345	0.3940679
1	0x3c9d78d0	0.019222647
2	0x3d8e2349	0.06940324
3	0x3ee0641c	0.43826377
4	0x3ea605dd	0.32426348
5	0x3ec67ac6	0.38765544
6	0x3eb22f9d	0.3480195
7	0x3ef71f86	0.48266238
8	0x3ec3711f	0.38172242
9	0x3ebfa552	0.37430817
