models/model_19.pt (torch, 2647 bytes, 5 tensors)

layers.0.weight f4 [10, 1]
0	0x3e4ed33d	0.20197769
1	0x3eb497dd	0.35272112
2	0x3ebec97a	0.3726309
3	0x3ebac9a6	0.3648197
4	0xbd2bad7a	-0.041913487
5	0x3e962987	0.29328558
6	0x3f031cdc	0.5121591
7	0x3dda4fe2	0.10659768
8	0x3ed028d5	0.40656152
9	0x3ed240f9	0.41065195

layers.0.bias f4 [10]
0	0x3e9426ae	0.2893576
1	0x3ea6ed1a	0.3260277
2	0x3e0beb9d	0.13664098
3	0x3e980315	0.2968985
4	0xbb978972	-0.004624539
5	0x3ef2b406	0.47402972
6	0x3f0afdc1	0.5429345
7	0x3d499816	0.049217306
8	0x3e5dfbc2	0.21678069
9	0x3e400302	0.18751147

layers.2.weight f4 [10, 10]
0	0x3e921d52	0.28537995
1	0x3ea8202b	0.32837042
2	0x3eacb2f4	0.3373028
3	0x3e92e951	0.2869363
4	0x3d0e0a9b	0.034678083
5	0x3ebd79c0	0.3700695
6	0x3eab3b30	0.33443594
7	0x3dce906a	0.100861385
8	0x3eafa57c	0.34305942
9	0x3e82681a	0.25470048
10	0xbd68bc21	-0.05682004
11	0xbdbe97ab	-0.09306272
12	0xbdf679a9	-0.120349236
13	0xbd49bd65	-0.049252886
14	0x3d4ed452	0.050495453
15	0xbdcf7eb2	-0.10131587
16	0xbddd46d0	-0.10804522
17	0xbd8faf36	-0.07015841
18	0xbda1a633	-0.07893028
19	0xbdddbc9c	-0.1082699
20	0x3cd6bcb1	0.026213022
21	0x3db0ae1d	0.086269595
22	0x3e04b185	0.12958343
23	0x3d94570c	0.072431654
24	0x3ba25815	0.004954348
25	0x3d46f922	0.048577435
26	0x3d9a6ff3	0.07540884
27	0x3bf11db5	0.0073582777
28	0x3db6869c	0.089123935
29	0x3d4dd7f6	0.050254785
30	0x3e900aff	0.2813339
31	0x3eaf0c5d	0.3418912
32	0x3e952340	0.29128456
33	0x3eb2db4b	0.34932932
34	0x3dce5dbc	0.10076472
35	0x3ea72b64	0.32650292
36	0x3ed35616	0.41276616
37	0x3dbb4a59	0.0914504
38	0x3e9205ff	0.285202
39	0x3eb2512f	0.34827563
40	0x3e8eb1be	0.27869982
41	0x3e8d922c	0.27650583
42	0x3e881cbd	0.26584426
43	0x3e98749f	0.29776475
44	0x3d548514	0.051884726
45	0x3eab932a	0.33510715
46	0x3e8d5897	0.2760665
47	0x3de333bb	0.11093851
48	0x3e8d407e	0.27588266
49	0x3e7bfb94	0.24607688
50	0x3e988c73	0.29794654
51	0x3e8c8423	0.27444562
52	0x3e696127	0.22790967
53	0x3e8386b5	0.2568871
54	0x3a65d184	0.0008766877
55	0x3eb347fe	0.35015863
56	0x3ead295d	0.3382062
57	0x3da5c450	0.08094084
58	0x3e955291	0.29164556
59	0x3e9338b3	0.28754196
60	0x3e51157c	0.20418352
61	0x3e9e4ef0	0.309196
62	0x3e3f3530	0.18672633
63	0x3e965c9a	0.29367524
64	0x3bc7757c	0.0060870033
65	0x3e9ab987	0.3021967
66	0x3eab9290	0.33510256
67	0x3d57ed2d	0.052716423
68	0x3e982fb5	0.29723898
69	0x3e8bb1e5	0.2728416
70	0x3e942fe3	0.28942785
71	0x3eb234de	0.3480596
72	0x3e948c8e	0.29013485
73	0x3eaaadad	0.3333563
74	0x3c1e0de6	0.009646868
75	0x3ebee532	0.37284237
76	0x3ed6b89e	0.41937727
77	0x3d715756	0.05892118
78	0x3eb257a6	0.34832495
79	0x3e9e7e2e	0.30955642
80	0x3e848ceb	0.25888762
81	0x3ea05481	0.3131447
82	0x3e9729bb	0.29524025
83	0x3e9e1ef0	0.30882978
84	0x3cc19869	0.023632245
85	0x3eb8e6ef	0.36113688
86	0x3ec1fac0	0.3788662
87	0x3db5ab8d	0.08870611
88	0x3e93021a	0.2871254
89	0x3ec8786e	0.3915438
90	0x3e46a545	0.19398983
91	0x3e936527	0.2878811
92	0x3e4c3c5b	0.19944899
93	0x3e96979c	0.29412544
94	0x3d0d6e5f	0.034529086
95	0x3ec1f62d	0.3788313
96	0x3ec3845e	0.38186926
97	0x3d8e792b	0.06956705
98	0x3e89604d	0.26831284
99	0x3e904d37	0.2818391

layers.2.bias f4 [10]
0	0x3ec1cf6f	0.37853572
1	0xbdcb0fde	-0.09915136
2	0x3da2dd7f	0.07952403
3	0x3ed0bd89	0.40769604
4	0x3ead1a54	0.3380915
5	0x3eadf296	0.3397414
6	0x3e8f21c5	0.27955452
7	0x3ec1d5f5	0.3785855
8	0x3eb34a4f	0.3501763
9	0x3eb9999e	0.36250013

layers.4.weight f4 [1, 10]
0	0x3ec9c345	0.3940679
1	0x3c9d78d1	0.019222649
2	0x3d8e234a	0.069403246
3	0x3ee0641d	0.4382638
4	0x3ea605dd	0.32426348
5	0x3ec67ac6	0.38765544
6	0x3eb22f9e	0.34801954
7	0x3ef71f85	0.48266235
8	0x3ec3711f	0.38172242
9	0x3ebfa552	0.37430817
