models/model_server.pt (torch, 2647 bytes, 5 tensors)

layers.0.weight f4 [10, 1]
00000000: d05f 363e 1d86 67bf b0f3 553e 29a8 833f
00000010: a057 e5bd 1528 393f 6dc3 7b3e 4054 b4bd
00000020: 3332 f43e 5021 03bf
0.17809987 -0.90439016 0.2089374 1.0285693 -0.11198354 0.72326785 0.24586268 -0.08805132
0.4769455 -0.51222706

layers.0.bias f4 [10]
00000000: 94ae 9b3f ecd2 90be 5502 8c3f 94e3 8c3f
00000010: 102f dabe e03f 593f 6c57 24bf 04c5 d0be
00000020: 95b5 2a3f e312 243f
1.2162652 -0.2828592 1.0938212 1.1006951 -0.4261403 0.8486309 -0.64195895 -0.4077531
0.6668332 0.6409132

layers.2.weight f4 [10, 10]
00000000: 20e7 343c ac80 253d 5010 e23c 28e5 a1be
00000010: 4c91 7b3e fff5 e33d b37c 4fbe 4867 1b3e
00000020: 2c16 9bbe c9c4 3cbd 81dc a13e 014d 16be
00000030: 1158 74be 5a88 85be c8a8 eabd ed22 af3c
00000040: 6d5c 38be 1ccf 913d 92cc 86be 7377 99be
00000050: cc6c 6dbd 2268 a0be 91a5 753e be59 08be
00000060: af19 16be cd48 b1be 4d03 fbbd c799 963e
00000070: 1f5f bf3d c5b5 d4bd ae7d 173e 160b 85be
00000080: 7d6c 8b3d 7f2d 8cbe 7d2b 32be 3ec2 87bd
00000090: ab9e 99be d5b0 5d3e 0210 92be 8592 463d
000000a0: 3548 c63e f36c 4f3e 273f b03e 8c70 113f
000000b0: c12b c4bd 80f0 903e 6568 5c3e a453 733e
000000c0: d0ae 8f3e 041a 37bc d73f 103f 5c14 2e3d
000000d0: 3331 d53e 9b81 0e3f 9458 8d3d cdcd 083f
000000e0: 5d35 6bbe 82ab 033d b954 6e3e e9a9 23be
000000f0: c57c 873d 032a 85be e04e a73d 75a6 32be
00000100: 998f 903e 4f12 d9bc 7376 963e 83e2 36be
00000110: 4719 53be a825 123d 05f3 d03e e0e1 023e
00000120: 0555 083f 2ce8 123f ba9e 0c3e 209e b03e
00000130: ec8d 34bd f72f 8abd 8d7a 8e3e e14a 573e
00000140: f3f7 823e 20e9 32be 301f 493e f8c2 fc3e
00000150: 25c1 b33c 9f2f 203f 9f75 e63b 8c93 ecbd
00000160: 9c0b 7b3e 177a 01be 2c01 efbd 186e 1fbe
00000170: 7b66 75be 2e72 8b3d 4dd2 1fbe 435c 9b3d
00000180: 3af6 8fbe 4500 283e 6153 9fbe b228 923e
0.011041433 0.040405914 0.027595669 -0.31620145 0.24567145 0.111309044 -0.20262413 0.15176117
-0.30290353 -0.046086106 0.31613544 -0.14677812 -0.2386172 -0.2608059 -0.11457974 0.021378959
-0.18004008 0.07119581 -0.2632795 -0.29973945 -0.057965085 -0.31329447 0.2398894 -0.13315484
-0.14658235 -0.34625855 -0.12256489 0.29414198 0.09344315 -0.10386232 0.14794037 -0.2598502
0.06807802 -0.2737846 -0.17399402 -0.06628846 -0.30003867 0.21649487 -0.28527838 0.048479576
0.38726965 0.20256405 0.3442318 0.5681236 -0.09578658 0.28308487 0.21524198 0.23762375
0.2806306 -0.011175636 0.5634741 0.042499885 0.416391 0.5566651 0.069016606 0.5343903
-0.22969575 0.032145984 0.23274507 -0.15982784 0.06615595 -0.26008615 0.08169341 -0.17446311
0.28234556 -0.026497988 0.29387245 -0.17859845 -0.20615111 0.035680443 0.4081041 0.12781477
0.5325473 0.57385516 0.13732424 0.3449564 -0.04408066 -0.0674743 0.27827874 0.21024658
0.25579795 -0.17471743 0.19640803 0.493675 0.021942684 0.62572664 0.0070330645 -0.1155158
0.24516147 -0.1264423 -0.116701454 -0.15569341 -0.23964874 0.068088874 -0.15607567 0.07585957
-0.28117543 0.16406353 -0.311183 0.28546673

layers.2.bias f4 [10]
00000000: c6ec 003e cc60 fabd adc1 00be ebd5 7dbd
00000010: ce78 aa3e a46d 423e dbcc 84bc 2839 bf3e
00000020: c90e 173f d35e c63d
0.12590322 -0.12225494 -0.12573881 -0.061971586 0.33295292 0.18987137 -0.016210964 0.37348294
0.59006935 0.09686055

layers.4.weight f4 [1, 10]
00000000: 4cda 513d d3b2 f43b 6827 4d3d cfd8 da3c
00000010: 0764 a63e b89b 003f b5e1 4b3d 5fbd f43e
00000020: 8186 0a3f 32c3 8bbc
0.051233575 0.0074676066 0.05008641 0.02671471 0.3249819 0.5023761 0.049775798 0.4780073
0.54111487 -0.01706085
