models/model_20.pt (torch, 2647 bytes, 5 tensors)

layers.0.weight f4 [10, 1]
0.2019777 0.35272115 0.37263092 0.36481974 -0.041913487 0.29328555 0.5121591 0.10659768
0.40656152 0.4106519
00000000: 3ed3 4e3e de97 b43e 7bc9 be3e a7c9 ba3e
00000010: 7aad 2bbd 8629 963e dc1c 033f e24f da3d
00000020: d528 d03e f740 d23e

layers.0.bias f4 [10]
0.2893576 0.32602766 0.13664098 0.2968985 -0.004624539 0.47402984 0.5429345 0.049217302
0.2167807 0.18751149
00000000: ae26 943e 19ed a63e 9deb 0b3e 1503 983e
00000010: 7289 97bb 0ab4 f23e c1fd 0a3f 1598 493d
00000020: c3fb 5d3e 0303 403e

layers.2.weight f4 [10, 10]
0.28537995 0.32837042 0.33730277 0.2869363 0.03467808 0.37006947 0.3344359 0.100861385
0.34305942 0.25470048 -0.056820046 -0.093062714 -0.12034922 -0.04925289 0.05049545 -0.10131586
-0.10804522 -0.07015841 -0.07893028 -0.10826991 0.026213022 0.0862696 0.12958343 0.07243165
0.004954348 0.04857743 0.07540883 0.0073582777 0.08912393 0.050254785 0.28133383 0.3418912
0.29128453 0.34932935 0.10076473 0.32650292 0.41276613 0.0914504 0.285202 0.3482757
0.27869985 0.2765058 0.26584423 0.29776478 0.051884722 0.33510715 0.2760665 0.11093852
0.2758827 0.24607688 0.29794657 0.2744456 0.2279097 0.2568871 0.00087668776 0.3501587
0.3382062 0.08094083 0.29164553 0.28754196 0.20418352 0.30919603 0.18672632 0.2936752
0.0060870037 0.3021967 0.33510256 0.052716423 0.29723898 0.27284157 0.28942782 0.34805962
0.29013488 0.33335632 0.009646869 0.3728424 0.41937727 0.05892119 0.3483249 0.30955642
0.25888762 0.3131447 0.29524025 0.3088298 0.023632241 0.36113685 0.3788662 0.088706106
0.2871254 0.3915438 0.19398981 0.28788108 0.19944897 0.29412544 0.03452909 0.37883127
0.38186926 0.06956705 0.26831284 0.2818391
00000000: 521d 923e 2b20 a83e f3b2 ac3e 51e9 923e
00000010: 9a0a 0e3d bf79 bd3e 2f3b ab3e 6a90 ce3d
00000020: 7ca5 af3e 1a68 823e 23bc 68bd aa97 bebd
00000030: a779 f6bd 66bd 49bd 51d4 4e3d b17e cfbd
00000040: d046 ddbd 36af 8fbd 33a6 a1bd 9dbc ddbd
00000050: b1bc d63c 1eae b03d 85b1 043e 0b57 943d
00000060: 1558 a23b 21f9 463d f26f 9a3d b51d f13b
00000070: 9b86 b63d f6d7 4d3d fd0a 903e 5d0c af3e
00000080: 3f23 953e 4cdb b23e bd5d ce3d 642b a73e
00000090: 1556 d33e 594a bb3d ff05 923e 3151 b23e
000000a0: bfb1 8e3e 2b92 8d3e bc1c 883e a074 983e
000000b0: 1385 543d 2a93 ab3e 9758 8d3e bc33 e33d
000000c0: 7f40 8d3e 94fb 7b3e 748c 983e 2284 8c3e
000000d0: 2961 693e b586 833e 85d1 653a 0048 b33e
000000e0: 5d29 ad3e 4ec4 a53d 9052 953e b338 933e
000000f0: 7c15 513e f14e 9e3e 2f35 3f3e 995c 963e
00000100: 7d75 c73b 87b9 9a3e 9092 ab3e 2ded 573d
00000110: b52f 983e e4b1 8b3e e22f 943e df34 b23e
00000120: 8f8c 943e aead aa3e e70d 1e3c 33e5 be3e
00000130: 9eb8 d63e 5957 713d a457 b23e 2e7e 9e3e
00000140: eb8c 843e 8154 a03e bb29 973e f11e 9e3e
00000150: 6798 c13c eee6 b83e c0fa c13e 8cab b53d
00000160: 1a02 933e 6e78 c83e 44a5 463e 2665 933e
00000170: 5a3c 4c3e 9c97 963e 606e 0d3d 2cf6 c13e
00000180: 5e84 c33e 2b79 8e3d 4d60 893e 374d 903e

layers.2.bias f4 [10]
0.3785357 -0.099151365 0.07952403 0.40769604 0.33809155 0.33974144 0.27955455 0.3785855
0.35017633 0.36250007
00000000: 6ecf c13e df0f cbbd 7fdd a23d 89bd d03e
00000010: 561a ad3e 97f2 ad3e c621 8f3e f5d5 c13e
00000020: 504a b33e 9c99 b93e

layers.4.weight f4 [1, 10]
0.3940679 0.019222645 0.06940324 0.43826374 0.32426345 0.38765544 0.34801957 0.48266235
0.38172245 0.37430814
00000000: 45c3 c93e cf78 9d3c 4923 8e3d 1b64 e03e
00000010: dc05 a63e c67a c63e 9f2f b23e 851f f73e
00000020: 2071 c33e 51a5 bf3e
