models/model_29.pt (torch, 2647 bytes, 5 tensors)

layers.0.weight f4 [10, 1]
0.20197769 0.35272115 0.3726309 0.36481974 -0.041913487 0.29328564 0.5121591 0.106597655
0.40656152 0.41065183
00000000: 3dd3 4e3e de97 b43e 7ac9 be3e a7c9 ba3e
00000010: 7aad 2bbd 8929 963e dc1c 033f df4f da3d
00000020: d528 d03e f540 d23e

layers.0.bias f4 [10]
0.28935763 0.32602766 0.13664098 0.29689854 -0.0046245395 0.4740298 0.54293454 0.04921731
0.21678069 0.1875115
00000000: af26 943e 19ed a63e 9deb 0b3e 1603 983e
00000010: 7389 97bb 09b4 f23e c2fd 0a3f 1798 493d
00000020: c2fb 5d3e 0403 403e

layers.2.weight f4 [10, 10]
0.28537995 0.32837042 0.33730277 0.2869363 0.03467808 0.37006953 0.3344359 0.100861385
0.3430594 0.25470048 -0.056820046 -0.09306272 -0.120349236 -0.04925289 0.050495453 -0.10131587
-0.10804522 -0.07015841 -0.07893029 -0.10826991 0.026213018 0.08626961 0.12958345 0.072431654
0.0049543483 0.04857743 0.075408846 0.0073582777 0.08912392 0.050254785 0.28133386 0.3418912
0.29128456 0.34932935 0.10076473 0.3265029 0.41276613 0.09145038 0.285202 0.34827566
0.27869985 0.27650583 0.26584426 0.29776478 0.051884722 0.33510712 0.27606657 0.11093852
0.27588266 0.24607688 0.29794654 0.27444562 0.22790965 0.25688714 0.0008766877 0.35015863
0.33820617 0.080940835 0.29164556 0.28754196 0.20418352 0.30919605 0.18672633 0.29367515
0.0060870037 0.3021967 0.33510262 0.052716415 0.29723898 0.27284157 0.2894278 0.3480596
0.29013485 0.33335626 0.009646868 0.37284237 0.41937727 0.05892118 0.34832492 0.3095564
0.25888765 0.31314474 0.29524025 0.30882978 0.023632241 0.3611369 0.37886626 0.0887061
0.2871254 0.39154384 0.19398983 0.28788108 0.19944897 0.29412544 0.03452909 0.3788313
0.38186926 0.06956704 0.26831287 0.28183916
00000000: 521d 923e 2b20 a83e f3b2 ac3e 51e9 923e
00000010: 9a0a 0e3d c179 bd3e 2f3b ab3e 6a90 ce3d
00000020: 7ba5 af3e 1a68 823e 23bc 68bd ab97 bebd
00000030: a979 f6bd 66bd 49bd 52d4 4e3d b27e cfbd
00000040: d046 ddbd 36af 8fbd 34a6 a1bd 9dbc ddbd
00000050: afbc d63c 1fae b03d 86b1 043e 0c57 943d
00000060: 1658 a23b 21f9 463d f46f 9a3d b51d f13b
00000070: 9a86 b63d f6d7 4d3d fe0a 903e 5d0c af3e
00000080: 4023 953e 4cdb b23e bd5d ce3d 632b a73e
00000090: 1556 d33e 564a bb3d ff05 923e 3051 b23e
000000a0: bfb1 8e3e 2c92 8d3e bd1c 883e a074 983e
000000b0: 1385 543d 2993 ab3e 9958 8d3e bc33 e33d
000000c0: 7e40 8d3e 94fb 7b3e 738c 983e 2384 8c3e
000000d0: 2661 693e b686 833e 84d1 653a fe47 b33e
000000e0: 5c29 ad3e 4fc4 a53d 9152 953e b338 933e
000000f0: 7c15 513e f24e 9e3e 3035 3f3e 975c 963e
00000100: 7d75 c73b 87b9 9a3e 9292 ab3e 2bed 573d
00000110: b52f 983e e4b1 8b3e e12f 943e de34 b23e
00000120: 8e8c 943e acad aa3e e60d 1e3c 32e5 be3e
00000130: 9eb8 d63e 5657 713d a557 b23e 2d7e 9e3e
00000140: ec8c 843e 8254 a03e bb29 973e f01e 9e3e
00000150: 6798 c13c f0e6 b83e c2fa c13e 8bab b53d
00000160: 1a02 933e 6f78 c83e 45a5 463e 2665 933e
00000170: 5a3c 4c3e 9c97 963e 606e 0d3d 2df6 c13e
00000180: 5e84 c33e 2a79 8e3d 4e60 893e 394d 903e

layers.2.bias f4 [10]
0.3785357 -0.099151365 0.07952402 0.40769598 0.33809155 0.3397414 0.27955452 0.3785855
0.35017636 0.36250007
00000000: 6ecf c13e df0f cbbd 7ddd a23d 87bd d03e
00000010: 561a ad3e 96f2 ad3e c521 8f3e f5d5 c13e
00000020: 514a b33e 9c99 b93e

layers.4.weight f4 [1, 10]
0.39406788 0.019222647 0.06940324 0.43826377 0.32426342 0.38765538 0.34801954 0.48266238
0.38172248 0.37430814
00000000: 44c3 c93e d078 9d3c 4923 8e3d 1c64 e03e
00000010: db05 a63e c47a c63e 9e2f b23e 861f f73e
00000020: 2171 c33e 51a5 bf3e
