models/model_2.pt (torch, 2647 bytes, 5 tensors)

layers.0.weight f4 [10, 1]
0	0x3dc76f9e	0.09738086
1	0x3dcc2544	0.09968045
2	0x3dcaf86e	0.099106655
3	0x3dca7d3f	0.0988717
4	0x3dca0663	0.098644994
5	0x3dcd8958	0.10035962
6	0x3dc6a2c6	0.09699015
7	0x3dc1dc9d	0.09465907
8	0x3dc60f02	0.09670831
9	0x3dc19776	0.09452717

layers.0.bias f4 [10]
0	0x3dc6cc6a	0.09706958
1	0x3dcc9afe	0.099905
2	0x3dcaf7ea	0.09910567
3	0x3dcaf24a	0.09909494
4	0x3dcaaa53	0.09895768
5	0x3dce16c6	0.100629374
6	0x3dc69f66	0.096983716
7	0x3dc1acb6	0.0945677
8	0x3dc60f52	0.09670891
9	0x3dc1db42	0.09465648

layers.2.weight f4 [10, 10]
0	0x3dac9c86	0.08428292
1	0x3da7441e	0.08167289
2	0x3da485f0	0.08033359
3	0x3db14ef4	0.08657637
4	0x3d74ec46	0.05979564
5	0x3dbc2ef9	0.09188647
6	0x3d5d33b8	0.0540044
7	0x3d64e69a	0.05588398
8	0x3d93b9cc	0.07213172
9	0x3d907da5	0.07055215
10	0x3daff40d	0.08591471
11	0x3dacb040	0.084320545
12	0x3d9021ea	0.070377186
13	0x3d9ab5e6	0.075542256
14	0x3d6e6d4b	0.0582097
15	0x3dca9e45	0.09893469
16	0x3d41a0dd	0.04727255
17	0x3d7d0233	0.061769675
18	0x3daa3188	0.083102286
19	0x3d83b631	0.06431235
20	0x3dc278ad	0.09495673
21	0x3dbe180d	0.09281931
22	0x3dc4bda9	0.09606487
23	0x3dc6a002	0.09698488
24	0x3dbfde5d	0.09368584
25	0x3dc517b7	0.09623664
26	0x3dbb07ab	0.09132322
27	0x3db6bffe	0.08923338
28	0x3db3a42f	0.0877155
29	0x3dbd4617	0.09241884
30	0x3daf2d3b	0.08553549
31	0x3db49abd	0.088185765
32	0x3d961f48	0.07330185
33	0x3d9de816	0.077102825
34	0x3d8dbd32	0.06920852
35	0x3dc3b0ca	0.09555204
36	0x3d6f211d	0.05838119
37	0x3d84669e	0.06464885
38	0x3dae9ef6	0.08526413
39	0x3d89e23d	0.06732605
40	0x3db9edf7	0.09078591
41	0x3db91aa1	0.09038282
42	0x3dc28475	0.094979204
43	0x3db3ab13	0.08772864
44	0x3daa36fd	0.083112694
45	0x3dc2f0cb	0.09518584
46	0x3da30313	0.07959571
47	0x3da7d9e9	0.0819586
48	0x3db2afc3	0.0872493
49	0x3d9c4a43	0.07631352
50	0x3dc96bb3	0.09834995
51	0x3dc25412	0.094886914
52	0x3dd2155b	0.102579795
53	0x3dc0aa98	0.09407538
54	0x3da8f3ce	0.08249627
55	0x3dc6f75f	0.09715151
56	0x3da46535	0.08027116
57	0x3db46618	0.08808535
58	0x3dc8bc00	0.09801483
59	0x3db26d2e	0.087122306
60	0x3db4ac89	0.08821971
61	0x3db872b4	0.09006253
62	0x3da5e41e	0.081001505
63	0x3dae0026	0.08496122
64	0x3da31d75	0.07964603
65	0x3dc76dfa	0.09737773
66	0x3d8f06cd	0.06983719
67	0x3d964335	0.073370375
68	0x3da7ddf5	0.08196632
69	0x3d937c7d	0.07201479
70	0x3db7f39a	0.0898201
71	0x3dbff1a3	0.093722604
72	0x3daff57f	0.085917465
73	0x3da6e1b0	0.08148515
74	0x3db21112	0.08694662
75	0x3dd5ede3	0.10445764
76	0x3da44752	0.08021416
77	0x3dc0745a	0.09397192
78	0x3dc8adf8	0.09798807
79	0x3d9cd9f8	0.07658762
80	0x3db9e8b2	0.09077586
81	0x3dabb78b	0.083846174
82	0x3da96136	0.08270495
83	0x3dafb335	0.08579103
84	0x3d88d3b6	0.06681006
85	0x3dc3b117	0.095552616
86	0x3d8146ee	0.06312357
87	0x3d676135	0.05648919
88	0x3da4f615	0.08054749
89	0x3d949376	0.072546884
90	0x3dd7497b	0.10512062
91	0x3ddbbd6e	0.1072949
92	0x3dd33755	0.10313288
93	0x3dd838b3	0.105576895
94	0x3dd5006b	0.1040047
95	0x3ddf519e	0.10904239
96	0x3dccc2e3	0.09998109
97	0x3dd030ae	0.10165535
98	0x3dc86272	0.09784402
99	0x3dd702d5	0.10498587

layers.2.bias f4 [10]
0	0x3d81c292	0.063359395
1	0x3d881516	0.06644647
2	0x3daaed42	0.083460346
3	0x3d86beca	0.06579359
4	0x3da005c7	0.07813602
5	0x3db5b142	0.088717
6	0x3d9e557d	0.07731149
7	0x3daf3e8b	0.08556851
8	0x3d8f7ade	0.07005857
9	0x3dd052fd	0.10172079

layers.4.weight f4 [1, 10]
0	0x3da4426b	0.08020481
1	0x3daf5812	0.0856172
2	0x3dbed8e8	0.09318715
3	0x3da7677a	0.081740335
4	0x3db7e5fc	0.08979413
5	0x3dce09e3	0.100604795
6	0x3db2f15e	0.087374434
7	0x3dccd923	0.10002353
8	0x3db098dd	0.08622906
9	0x3ddab64a	0.106793
