models/model_16.pt (torch, 2647 bytes, 5 tensors)

layers.0.weight f4 [10, 1]
00000000: 3dd3 4e3e dd97 b43e 7cc9 be3e a7c9 ba3e
00000010: 77ad 2bbd 8729 963e dc1c 033f e04f da3d
00000020: d428 d03e f940 d23e
0.20197769 0.35272112 0.37263095 0.36481974 -0.041913476 0.29328558 0.5121591 0.10659766
0.4065615 0.41065195

layers.0.bias f4 [10]
00000000: ad26 943e 17ed a63e 9deb 0b3e 1503 983e
00000010: 7389 97bb 07b4 f23e c2fd 0a3f 1698 493d
00000020: c1fb 5d3e 0403 403e
0.28935757 0.3260276 0.13664098 0.2968985 -0.0046245395 0.47402975 0.54293454 0.049217306
0.21678068 0.1875115

layers.2.weight f4 [10, 10]
00000000: 521d 923e 2b20 a83e f3b2 ac3e 51e9 923e
00000010: 9a0a 0e3d c079 bd3e 2f3b ab3e 6a90 ce3d
00000020: 7ca5 af3e 1a68 823e 23bc 68bd ab97 bebd
00000030: a779 f6bd 66bd 49bd 51d4 4e3d b27e cfbd
00000040: d046 ddbd 34af 8fbd 32a6 a1bd 9cbc ddbd
00000050: b1bc d63c 1eae b03d 85b1 043e 0c57 943d
00000060: 1658 a23b 21f9 463d f46f 9a3d b41d f13b
00000070: 9a86 b63d f6d7 4d3d fe0a 903e 5d0c af3e
00000080: 4023 953e 4ddb b23e bc5d ce3d 652b a73e
00000090: 1656 d33e 594a bb3d ff05 923e 2f51 b23e
000000a0: bfb1 8e3e 2b92 8d3e bc1c 883e 9f74 983e
000000b0: 1385 543d 2b93 ab3e 9758 8d3e be33 e33d
000000c0: 8040 8d3e 94fb 7b3e 758c 983e 2384 8c3e
000000d0: 2961 693e b686 833e 83d1 653a fe47 b33e
000000e0: 5e29 ad3e 4ec4 a53d 9152 953e b338 933e
000000f0: 7c15 513e f24e 9e3e 2f35 3f3e 995c 963e
00000100: 7d75 c73b 86b9 9a3e 9292 ab3e 2ced 573d
00000110: b52f 983e e4b1 8b3e e12f 943e df34 b23e
00000120: 8f8c 943e adad aa3e e60d 1e3c 32e5 be3e
00000130: 9fb8 d63e 5757 713d a557 b23e 2e7e 9e3e
00000140: ec8c 843e 8054 a03e ba29 973e f01e 9e3e
00000150: 6798 c13c eee6 b83e c0fa c13e 8cab b53d
00000160: 1902 933e 7078 c83e 46a5 463e 2765 933e
00000170: 593c 4c3e 9d97 963e 606e 0d3d 2ef6 c13e
00000180: 5e84 c33e 2b79 8e3d 4d60 893e 394d 903e
0.28537995 0.32837042 0.33730277 0.2869363 0.03467808 0.3700695 0.3344359 0.100861385
0.34305942 0.25470048 -0.056820046 -0.09306272 -0.12034922 -0.04925289 0.05049545 -0.10131587
-0.10804522 -0.07015839 -0.07893027 -0.1082699 0.026213022 0.0862696 0.12958343 0.072431654
0.0049543483 0.04857743 0.075408846 0.007358277 0.08912392 0.050254785 0.28133386 0.3418912
0.29128456 0.34932938 0.10076472 0.32650295 0.41276616 0.0914504 0.285202 0.34827563
0.27869985 0.2765058 0.26584423 0.29776475 0.051884722 0.33510718 0.2760665 0.110938534
0.27588272 0.24607688 0.2979466 0.27444562 0.2279097 0.25688714 0.00087668764 0.35015863
0.33820623 0.08094083 0.29164556 0.28754196 0.20418352 0.30919605 0.18672632 0.2936752
0.0060870037 0.30219668 0.33510262 0.05271642 0.29723898 0.27284157 0.2894278 0.34805962
0.29013488 0.3333563 0.009646868 0.37284237 0.4193773 0.058921184 0.34832492 0.30955642
0.25888765 0.31314468 0.29524022 0.30882978 0.023632241 0.36113685 0.3788662 0.088706106
0.28712538 0.39154387 0.19398984 0.2878811 0.19944896 0.29412547 0.03452909 0.37883133
0.38186926 0.06956705 0.26831284 0.28183916

layers.2.bias f4 [10]
00000000: 6ecf c13e df0f cbbd 7edd a23d 87bd d03e
00000010: 551a ad3e 97f2 ad3e c521 8f3e f5d5 c13e
00000020: 504a b33e 9d99 b93e
0.3785357 -0.099151365 0.079524025 0.40769598 0.33809152 0.33974144 0.27955452 0.3785855
0.35017633 0.3625001

layers.4.weight f4 [1, 10]
00000000: 46c3 c93e d078 9d3c 4a23 8e3d 1c64 e03e
00000010: dc05 a63e c67a c63e 9f2f b23e 861f f73e
00000020: 2071 c33e 52a5 bf3e
0.39406794 0.019222647 0.069403246 0.43826377 0.32426345 0.38765544 0.34801957 0.48266238
0.38172245 0.37430817
