models/model_7.pt (torch, 2647 bytes, 5 tensors)

layers.0.weight f4 [10, 1]
0	0x3e4ed33d	0.20197769
1	0x3eb497de	0.35272115
2	0x3ebec97c	0.37263095
3	0x3ebac9a6	0.3648197
4	0xbd2bad79	-0.041913483
5	0x3e962986	0.29328555
6	0x3f031cdc	0.5121591
7	0x3dda4fe1	0.10659767
8	0x3ed028d4	0.4065615
9	0x3ed240f5	0.41065183

layers.0.bias f4 [10]
0	0x3e9426ae	0.2893576
1	0x3ea6ed16	0.32602757
2	0x3e0beb9d	0.13664098
3	0x3e980314	0.29689848
4	0xbb978973	-0.0046245395
5	0x3ef2b409	0.4740298
6	0x3f0afdc2	0.54293454
7	0x3d499815	0.049217302
8	0x3e5dfbc4	0.21678072
9	0x3e400304	0.1875115

layers.2.weight f4 [10, 10]
0	0x3e921d53	0.28537998
1	0x3ea8202b	0.32837042
2	0x3eacb2f3	0.33730277
3	0x3e92e951	0.2869363
4	0x3d0e0a9b	0.034678083
5	0x3ebd79bf	0.37006947
6	0x3eab3b30	0.33443594
7	0x3dce906a	0.100861385
8	0x3eafa57d	0.34305945
9	0x3e82681a	0.25470048
10	0xbd68bc22	-0.056820042
11	0xbdbe97aa	-0.093062714
12	0xbdf679a9	-0.120349236
13	0xbd49bd66	-0.04925289
14	0x3d4ed453	0.050495457
15	0xbdcf7eb1	-0.10131586
16	0xbddd46d0	-0.10804522
17	0xbd8faf35	-0.0701584
18	0xbda1a634	-0.07893029
19	0xbdddbc9c	-0.1082699
20	0x3cd6bcb1	0.026213022
21	0x3db0ae1e	0.0862696
22	0x3e04b185	0.12958343
23	0x3d94570c	0.072431654
24	0x3ba25815	0.004954348
25	0x3d46f921	0.04857743
26	0x3d9a6ff3	0.07540884
27	0x3bf11db6	0.007358278
28	0x3db6869c	0.089123935
29	0x3d4dd7f6	0.050254785
30	0x3e900afd	0.28133383
31	0x3eaf0c5d	0.3418912
32	0x3e952340	0.29128456
33	0x3eb2db4d	0.34932938
34	0x3dce5dbd	0.10076473
35	0x3ea72b62	0.32650286
36	0x3ed35616	0.41276616
37	0x3dbb4a57	0.091450386
38	0x3e9205fe	0.28520197
39	0x3eb25131	0.3482757
40	0x3e8eb1bf	0.27869985
41	0x3e8d922b	0.2765058
42	0x3e881cbb	0.2658442
43	0x3e98749f	0.29776475
44	0x3d548512	0.05188472
45	0x3eab9329	0.33510712
46	0x3e8d5897	0.2760665
47	0x3de333bb	0.11093851
48	0x3e8d4080	0.27588272
49	0x3e7bfb93	0.24607687
50	0x3e988c75	0.2979466
51	0x3e8c8424	0.27444565
52	0x3e696129	0.2279097
53	0x3e8386b6	0.25688714
54	0x3a65d184	0.0008766877
55	0x3eb347ff	0.35015866
56	0x3ead295d	0.3382062
57	0x3da5c44e	0.08094083
58	0x3e955290	0.29164553
59	0x3e9338b3	0.28754196
60	0x3e51157c	0.20418352
61	0x3e9e4ef0	0.309196
62	0x3e3f352f	0.18672632
63	0x3e965c9a	0.29367524
64	0x3bc7757c	0.0060870033
65	0x3e9ab987	0.3021967
66	0x3eab9291	0.3351026
67	0x3d57ed2c	0.05271642
68	0x3e982fb6	0.297239
69	0x3e8bb1e4	0.27284157
70	0x3e942fe2	0.28942782
71	0x3eb234df	0.34805962
72	0x3e948c8d	0.29013482
73	0x3eaaadac	0.33335626
74	0x3c1e0de6	0.009646868
75	0x3ebee532	0.37284237
76	0x3ed6b89f	0.4193773
77	0x3d715757	0.058921184
78	0x3eb257a4	0.3483249
79	0x3e9e7e2f	0.30955645
80	0x3e848ceb	0.25888762
81	0x3ea05481	0.3131447
82	0x3e9729ba	0.29524022
83	0x3e9e1eef	0.30882975
84	0x3cc19869	0.023632245
85	0x3eb8e6f0	0.3611369
86	0x3ec1fac0	0.3788662
87	0x3db5ab8d	0.08870611
88	0x3e930219	0.28712538
89	0x3ec8786e	0.3915438
90	0x3e46a545	0.19398983
91	0x3e936525	0.28788105
92	0x3e4c3c5a	0.19944897
93	0x3e96979c	0.29412544
94	0x3d0d6e5f	0.034529086
95	0x3ec1f62d	0.3788313
96	0x3ec3845e	0.38186926
97	0x3d8e792b	0.06956705
98	0x3e89604e	0.26831287
99	0x3e904d39	0.28183916

layers.2.bias f4 [10]
0	0x3ec1cf6e	0.3785357
1	0xbdcb0fe0	-0.09915137
2	0x3da2dd7f	0.07952403
3	0x3ed0bd8a	0.40769607
4	0x3ead1a54	0.3380915
5	0x3eadf297	0.33974144
6	0x3e8f21c5	0.27955452
7	0x3ec1d5f5	0.3785855
8	0x3eb34a50	0.35017633
9	0x3eb9999d	0.3625001

layers.4.weight f4 [1, 10]
0	0x3ec9c345	0.3940679
1	0x3c9d78d0	0.019222647
2	0x3d8e234a	0.069403246
3	0x3ee0641c	0.43826377
4	0x3ea605dd	0.32426348
5	0x3ec67ac6	0.38765544
6	0x3eb22f9f	0.34801957
7	0x3ef71f85	0.48266235
8	0x3ec3711f	0.38172242
9	0x3ebfa551	0.37430814
