models/model_8.pt (torch, 2647 bytes, 5 tensors)

layers.0.weight f4 [10, 1]
0.20197769 0.35272115 0.37263092 0.3648197 -0.041913487 0.29328558 0.51215905 0.10659766
0.40656152 0.41065186
00000000: 3dd3 4e3e de97 b43e 7bc9 be3e a6c9 ba3e
00000010: 7aad 2bbd 8729 963e db1c 033f e04f da3d
00000020: d528 d03e f640 d23e

layers.0.bias f4 [10]
0.2893576 0.32602766 0.13664098 0.2968985 -0.004624539 0.47402975 0.54293454 0.049217306
0.21678069 0.18751147
00000000: ae26 943e 19ed a63e 9deb 0b3e 1503 983e
00000010: 7289 97bb 07b4 f23e c2fd 0a3f 1698 493d
00000020: c2fb 5d3e 0203 403e

layers.2.weight f4 [10, 10]
0.28537998 0.32837042 0.3373028 0.2869363 0.034678083 0.3700695 0.33443588 0.10086138
0.3430594 0.25470048 -0.056820042 -0.09306272 -0.12034924 -0.04925289 0.05049545 -0.10131587
-0.10804522 -0.0701584 -0.07893028 -0.1082699 0.026213024 0.08626961 0.12958343 0.07243165
0.004954348 0.04857743 0.07540884 0.0073582777 0.08912391 0.05025478 0.28133386 0.34189123
0.29128456 0.34932938 0.10076473 0.3265029 0.41276613 0.09145038 0.285202 0.34827563
0.27869982 0.2765058 0.26584423 0.29776475 0.051884726 0.33510712 0.2760665 0.11093852
0.2758827 0.24607688 0.29794657 0.27444565 0.2279097 0.25688714 0.0008766877 0.35015866
0.3382062 0.08094083 0.29164553 0.28754196 0.2041835 0.309196 0.18672633 0.2936752
0.0060870033 0.3021967 0.33510256 0.052716427 0.29723898 0.27284157 0.2894278 0.34805962
0.29013482 0.33335626 0.009646869 0.37284237 0.41937733 0.05892119 0.34832492 0.3095564
0.25888765 0.31314474 0.29524022 0.30882978 0.023632241 0.36113685 0.37886617 0.0887061
0.2871254 0.39154387 0.19398983 0.2878811 0.19944896 0.29412547 0.03452909 0.3788313
0.38186923 0.06956705 0.26831284 0.28183916
00000000: 531d 923e 2b20 a83e f4b2 ac3e 51e9 923e
00000010: 9b0a 0e3d c079 bd3e 2e3b ab3e 6990 ce3d
00000020: 7ba5 af3e 1a68 823e 22bc 68bd ab97 bebd
00000030: aa79 f6bd 66bd 49bd 51d4 4e3d b27e cfbd
00000040: d046 ddbd 35af 8fbd 33a6 a1bd 9cbc ddbd
00000050: b2bc d63c 1fae b03d 85b1 043e 0b57 943d
00000060: 1558 a23b 21f9 463d f36f 9a3d b51d f13b
00000070: 9986 b63d f5d7 4d3d fe0a 903e 5e0c af3e
00000080: 4023 953e 4ddb b23e bd5d ce3d 632b a73e
00000090: 1556 d33e 564a bb3d ff05 923e 2f51 b23e
000000a0: beb1 8e3e 2b92 8d3e bc1c 883e 9f74 983e
000000b0: 1485 543d 2993 ab3e 9758 8d3e bc33 e33d
000000c0: 7f40 8d3e 94fb 7b3e 748c 983e 2484 8c3e
000000d0: 2961 693e b686 833e 84d1 653a ff47 b33e
000000e0: 5d29 ad3e 4ec4 a53d 9052 953e b338 933e
000000f0: 7b15 513e f04e 9e3e 3035 3f3e 995c 963e
00000100: 7c75 c73b 87b9 9a3e 9092 ab3e 2eed 573d
00000110: b52f 983e e4b1 8b3e e12f 943e df34 b23e
00000120: 8d8c 943e acad aa3e e70d 1e3c 32e5 be3e
00000130: a0b8 d63e 5957 713d a557 b23e 2d7e 9e3e
00000140: ec8c 843e 8254 a03e ba29 973e f01e 9e3e
00000150: 6798 c13c eee6 b83e bffa c13e 8bab b53d
00000160: 1a02 933e 7078 c83e 45a5 463e 2765 933e
00000170: 593c 4c3e 9d97 963e 606e 0d3d 2df6 c13e
00000180: 5d84 c33e 2b79 8e3d 4d60 893e 394d 903e

layers.2.bias f4 [10]
0.37853572 -0.099151365 0.079524025 0.40769607 0.33809152 0.3397414 0.27955455 0.3785855
0.35017636 0.3625001
00000000: 6fcf c13e df0f cbbd 7edd a23d 8abd d03e
00000010: 551a ad3e 96f2 ad3e c621 8f3e f5d5 c13e
00000020: 514a b33e 9d99 b93e

layers.4.weight f4 [1, 10]
0.3940679 0.019222647 0.06940324 0.43826377 0.32426345 0.38765544 0.34801954 0.48266235
0.38172242 0.37430817
00000000: 45c3 c93e d078 9d3c 4923 8e3d 1c64 e03e
00000010: dc05 a63e c67a c63e 9e2f b23e 851f f73e
00000020: 1f71 c33e 52a5 bf3e
