models/model_9.pt (torch, 2647 bytes, 5 tensors)

layers.0.weight f4 [10, 1]
00000000: d8da 343e a06e 383e f76d 373e 94aa 383e
00000010: f37a 373e 88c6 3c3e 104c 343e ad15 313e
00000020: e6cb 333e c633 303e
0.17661607 0.1801095 0.17913042 0.1803382 0.17917995 0.18435109 0.1760714 0.17293425
0.1755825 0.1720725

layers.0.bias f4 [10]
00000000: 5891 343e 3da7 383e b765 373e bae1 383e
00000010: 16d2 373e aa22 3d3e 2441 343e 40d3 303e
00000020: 3eaa 333e c088 303e
0.17633569 0.18032546 0.17909895 0.18054858 0.17951235 0.18470255 0.17602974 0.17268085
0.17545411 0.17239666

layers.2.weight f4 [10, 10]
00000000: ab11 193e a3bc 133e 6660 1a3e 3c29 213e
00000010: 5a1f ef3d 1ab0 233e ba04 e23d 3353 dd3d
00000020: e8b9 f23d f9e8 013e 73bf 293e 672e 293e
00000030: e21a 0f3e 5eb8 193e e562 f73d fb93 343e
00000040: 003d dd3d 105a d93d adec ff3d f5c3 013e
00000050: 8e11 2e3e d2d5 2b3e 2bea 303e 3308 333e
00000060: fbd7 2b3e bdfd 333e 500f 263e 721c 243e
00000070: b5de 223e 8d5c 2b3e e8f0 1e3e 96db 213e
00000080: 2800 1c3e ad67 163e 26c2 063e b62d 293e
00000090: 1202 033e 157c fb3d 609d 1b3e ed3b 073e
000000a0: a362 243e b619 253e ae0e 2e3e 8df9 233e
000000b0: 67bb 163e b91b 2e3e 5e81 163e 3d4d 0f3e
000000c0: c0a6 203e e4b2 133e 8352 393e 54ee 363e
000000d0: 0318 403e b6fa 2f3e b3a7 253e 82d7 2e3e
000000e0: 94b3 293e f506 223e be3e 373e b275 2d3e
000000f0: 8a8a 1e3e 45aa 1e3e e380 1f3e 7a57 213e
00000100: 1256 0c3e faf6 303e f6a0 fc3d 188e 073e
00000110: 4e30 083e a272 083e 6400 2b3e 2542 323e
00000120: 7852 293e 8ed5 233e e8b3 283e 169e 433e
00000130: b2bd 233e cf1a 313e c207 363e 5e83 1e3e
00000140: bb2f 2b3e da6f 243e b819 1d3e cedd 203e
00000150: 4346 043e 0dcb 2b3e afa3 0d3e 73d5 d53d
00000160: 575e 093e 34ce 073e 68d3 483e 3845 503e
00000170: 11bf 413e 5497 493e d0f3 443e fb1b 543e
00000180: b0ab 2e3e 2204 373e fade 2e3e d2ce 483e
0.14948146 0.14427428 0.15075836 0.15738386 0.11675902 0.15985146 0.11036058 0.108068846
0.11851865 0.12686528 0.16576938 0.16521607 0.13975099 0.15011737 0.120794095 0.17634575
0.108026505 0.10612881 0.12496314 0.12672408 0.16998884 0.16780785 0.17276828 0.17483597
0.16781609 0.17577262 0.16216779 0.16026476 0.15905268 0.16734524 0.15521586 0.15806422
0.15234435 0.14687987 0.13159999 0.16521344 0.12793759 0.12279526 0.15196753 0.13206454
0.16053252 0.16123089 0.16997787 0.16013165 0.14719926 0.17002763 0.14697787 0.13994308
0.1568861 0.1442371 0.18097882 0.17864352 0.1875916 0.17185482 0.16177253 0.17074397
0.1657241 0.15822966 0.17895028 0.16939428 0.15482536 0.1549464 0.1557651 0.15756026
0.13704708 0.17281714 0.12335388 0.13237798 0.13299677 0.13324979 0.16699368 0.17408045
0.16535366 0.15999433 0.16474879 0.19103274 0.15990332 0.17295383 0.17776397 0.154798
0.16717426 0.16058293 0.15341842 0.15709612 0.12917428 0.16776676 0.13831972 0.10441103
0.13414894 0.13262254 0.19611895 0.20338905 0.18920542 0.19686633 0.19233632 0.20713799
0.17057681 0.1787267 0.17077246 0.19610146

layers.2.bias f4 [10]
00000000: b079 f23d d233 033e 2b29 1f3e 1d0a 013e
00000010: f0cf 103e 2d08 283e ca0a 113e d3a4 283e
00000020: eea4 083e 955e 443e
0.11839616 0.12812737 0.15543048 0.12601514 0.14141822 0.16409369 0.14164272 0.16469125
0.13344166 0.19176705

layers.4.weight f4 [1, 10]
00000000: ee66 193e 07f6 1f3e 3182 2d3e d937 1d3e
00000010: 2574 273e e0c9 383e 6562 213e c9f3 3a3e
00000020: 2cb1 213e 3e9c 4f3e
0.14980671 0.15621196 0.16944195 0.15353335 0.163529 0.18045759 0.15760191 0.18257059
0.15790242 0.20274445
