models/model_0.pt (torch, 2647 bytes, 5 tensors)

layers.0.weight f4 [10, 1]
00000000: 2b02 0f3e c5a2 113e cf79 113e 8f49 123e
00000010: fdfa 103e 59b7 143e 3d21 0e3e 5b65 0c3e
00000020: 762e 0d3e e898 0a3e
0.13965671 0.14222248 0.14206623 0.14285873 0.14158244 0.14523067 0.13879867 0.13710539
0.13787255 0.13534892

layers.0.bias f4 [10]
00000000: dbb7 0e3e 12e6 113e 297e 113e a687 123e
00000010: 2271 113e 0b08 153e e82c 0e3e 7551 0c3e
00000020: c530 0d3e 4afc 0a3e
0.13937323 0.14247921 0.14208283 0.14309558 0.14203313 0.1455385 0.13884318 0.13702948
0.13788135 0.13572803

layers.2.weight f4 [10, 10]
00000000: e6d6 f63d cbab f53d ea6f eb3d 1af9 fd3d
00000010: c427 ca3d 02c7 053e 2f87 bd3d 49b5 af3d
00000020: 2e80 d73d 4b1e d63d 886f 033e 58e8 033e
00000030: 7a7a e53d d277 ee3d e3e2 c33d 416c 0b3e
00000040: f7ec a63d d026 a53d 5af1 e93d 52fa d73d
00000050: 8307 0a3e caa7 073e 1e2f 0c3e 358f 0d3e
00000060: d788 073e 256d 0e3e 06c2 033e bde8 ff3d
00000070: 18ca 003e fcdb 063e ed12 fb3d 8ebb 003e
00000080: ea32 e13d 465c e73d 433a cc3d 3e30 043e
00000090: e28f bc3d 463f af3d c681 f63d fa1c d03d
000000a0: c397 fd3d c266 003e ee59 093e 3d4c fd3d
000000b0: e06c e93d e5f1 083e 3e8f ec3d 13ea d93d
000000c0: fac0 fd3d 1e4b e23d fdef 133e e475 113e
000000d0: 37b3 183e 0e7e 093e 133a 003e b07c 063e
000000e0: 52d3 053e f249 f73d 45f2 113e cb47 083e
000000f0: a390 fc3d 288f 023e d30a f43d c693 fd3d
00000100: 85b7 e93d d62c 113e 9ece d53d 5a33 d73d
00000110: ca3c f33d 05b4 df3d e26a 053e c6a6 0b3e
00000120: 94c1 013e 1b5a fc3d 2361 023e 0528 1b3e
00000130: 1a72 f83d e7bc 073e 2d0a 0f3e 8a87 f03d
00000140: 7cfe 013e 9de3 fc3d 503c fc3d e0d4 fc3d
00000150: bb69 d23d d59a 033e 6678 d63d cc44 a23d
00000160: 2376 f13d 7a04 e53d 1077 1e3e 8291 233e
00000170: 62c1 1b3e 0efb 1e3e 72fd 1a3e 8289 263e
00000180: 3889 0e3e 79bf 0d3e 3ba8 0e3e a1a9 1e3e
0.120527074 0.119956575 0.11495955 0.12401028 0.09870866 0.13064197 0.092543 0.08579499
0.10522495 0.10454997 0.12835515 0.12881601 0.11205001 0.11643948 0.095647596 0.13615514
0.08150666 0.080640435 0.11422987 0.10545792 0.13479428 0.132476 0.13689849 0.1382416
0.13235794 0.13908823 0.12866983 0.12495563 0.12577093 0.13169855 0.12259469 0.12571546
0.10996039 0.11296897 0.0997205 0.12909028 0.09207131 0.0855699 0.12036471 0.10161777
0.12382462 0.12539199 0.13413212 0.12368057 0.113977194 0.13373525 0.11550759 0.10640349
0.12390323 0.11049484 0.14447017 0.14205128 0.14912115 0.13426992 0.12522154 0.13133502
0.13068894 0.12074651 0.14252575 0.13308637 0.12332275 0.12749922 0.11916127 0.12381701
0.11411957 0.1417726 0.104398 0.105078414 0.11876829 0.10923008 0.13029054 0.13637838
0.126715 0.12321874 0.12732367 0.15151985 0.12131138 0.13255654 0.13968726 0.11744602
0.12694734 0.12348101 0.12316191 0.1234529 0.10274073 0.12852032 0.10472183 0.07923278
0.11790111 0.111824945 0.15475106 0.15973476 0.15210488 0.15525457 0.15135744 0.16263393
0.13919532 0.13842572 0.13931362 0.15494396

layers.2.bias f4 [10]
00000000: 86bc c13d 2e1c ce3d f683 f93d 7919 c33d
00000010: 68c3 e23d 0091 033e c8ba e93d 457c 023e
00000020: 7be6 d63d 627c 1b3e
0.09459786 0.100639686 0.12183373 0.09526343 0.11072427 0.12848282 0.11412579 0.12742718
0.104931794 0.15184167

layers.4.weight f4 [1, 10]
00000000: c2be f13d a038 003e 1ca4 083e 6d67 f53d
00000010: 26a2 043e 7d54 113e 9584 023e da41 143e
00000020: 2a2f 033e f22b 233e
0.11803962 0.125216 0.13343853 0.119826175 0.1295248 0.14192386 0.12745889 0.14478245
0.1281096 0.15934733
