models/model_5.pt (torch, 2647 bytes, 5 tensors)

layers.0.weight f4 [10, 1]
0.2019777 0.35272112 0.37263092 0.3648198 -0.041913483 0.29328558 0.5121591 0.10659767
0.4065615 0.41065186
00000000: 3ed3 4e3e dd97 b43e 7bc9 be3e a9c9 ba3e
00000010: 79ad 2bbd 8729 963e dc1c 033f e14f da3d
00000020: d428 d03e f640 d23e

layers.0.bias f4 [10]
0.2893576 0.32602766 0.13664098 0.2968985 -0.004624539 0.47402975 0.54293454 0.049217306
0.21678069 0.1875115
00000000: ae26 943e 19ed a63e 9deb 0b3e 1503 983e
00000010: 7289 97bb 07b4 f23e c2fd 0a3f 1698 493d
00000020: c2fb 5d3e 0403 403e

layers.2.weight f4 [10, 10]
0.28537995 0.32837045 0.33730277 0.2869363 0.034678083 0.3700695 0.33443594 0.10086138
0.34305942 0.25470048 -0.05682004 -0.09306272 -0.12034922 -0.049252886 0.050495453 -0.10131586
-0.10804523 -0.0701584 -0.07893028 -0.10826991 0.026213022 0.0862696 0.12958343 0.07243165
0.004954348 0.04857743 0.07540884 0.0073582777 0.08912393 0.050254785 0.28133386 0.34189117
0.29128453 0.34932938 0.10076472 0.3265029 0.41276613 0.091450386 0.28520197 0.34827566
0.27869985 0.27650586 0.26584423 0.29776478 0.051884722 0.33510712 0.2760666 0.11093852
0.2758827 0.24607688 0.29794654 0.27444562 0.2279097 0.2568871 0.00087668764 0.35015863
0.3382062 0.080940835 0.29164556 0.28754196 0.20418353 0.30919603 0.18672633 0.29367524
0.0060870033 0.3021967 0.33510262 0.052716423 0.29723898 0.27284154 0.28942782 0.34805962
0.29013482 0.3333563 0.009646869 0.37284237 0.4193773 0.058921184 0.34832492 0.3095564
0.25888762 0.3131447 0.29524028 0.3088298 0.023632241 0.36113688 0.3788662 0.08870611
0.2871254 0.39154384 0.19398983 0.2878811 0.19944899 0.29412547 0.034529086 0.3788313
0.38186923 0.06956704 0.26831284 0.2818391
00000000: 521d 923e 2c20 a83e f3b2 ac3e 51e9 923e
00000010: 9b0a 0e3d c079 bd3e 303b ab3e 6990 ce3d
00000020: 7ca5 af3e 1a68 823e 21bc 68bd ab97 bebd
00000030: a779 f6bd 65bd 49bd 52d4 4e3d b17e cfbd
00000040: d146 ddbd 35af 8fbd 33a6 a1bd 9dbc ddbd
00000050: b1bc d63c 1eae b03d 85b1 043e 0b57 943d
00000060: 1558 a23b 21f9 463d f36f 9a3d b51d f13b
00000070: 9b86 b63d f6d7 4d3d fe0a 903e 5c0c af3e
00000080: 3f23 953e 4ddb b23e bc5d ce3d 632b a73e
00000090: 1556 d33e 574a bb3d fe05 923e 3051 b23e
000000a0: bfb1 8e3e 2d92 8d3e bc1c 883e a074 983e
000000b0: 1385 543d 2993 ab3e 9a58 8d3e bc33 e33d
000000c0: 7f40 8d3e 94fb 7b3e 738c 983e 2384 8c3e
000000d0: 2961 693e b586 833e 83d1 653a fe47 b33e
000000e0: 5d29 ad3e 4fc4 a53d 9152 953e b338 933e
000000f0: 7d15 513e f14e 9e3e 3035 3f3e 9a5c 963e
00000100: 7c75 c73b 87b9 9a3e 9292 ab3e 2ded 573d
00000110: b52f 983e e3b1 8b3e e22f 943e df34 b23e
00000120: 8d8c 943e adad aa3e e70d 1e3c 32e5 be3e
00000130: 9fb8 d63e 5757 713d a557 b23e 2d7e 9e3e
00000140: eb8c 843e 8154 a03e bc29 973e f11e 9e3e
00000150: 6798 c13c efe6 b83e c0fa c13e 8dab b53d
00000160: 1a02 933e 6f78 c83e 45a5 463e 2765 933e
00000170: 5b3c 4c3e 9d97 963e 5f6e 0d3d 2df6 c13e
00000180: 5d84 c33e 2a79 8e3d 4d60 893e 374d 903e

layers.2.bias f4 [10]
0.37853572 -0.099151365 0.079524025 0.40769595 0.33809152 0.3397414 0.27955455 0.3785855
0.35017636 0.3625001
00000000: 6fcf c13e df0f cbbd 7edd a23d 86bd d03e
00000010: 551a ad3e 96f2 ad3e c621 8f3e f5d5 c13e
00000020: 514a b33e 9d99 b93e

layers.4.weight f4 [1, 10]
0.3940679 0.019222643 0.06940324 0.43826374 0.32426345 0.38765535 0.34801954 0.48266235
0.38172245 0.37430817
00000000: 45c3 c93e ce78 9d3c 4923 8e3d 1b64 e03e
00000010: dc05 a63e c37a c63e 9e2f b23e 851f f73e
00000020: 2071 c33e 52a5 bf3e
