models/model_28.pt (torch, 2647 bytes, 5 tensors)

layers.0.weight f4 [10, 1]
0.2019777 0.35272115 0.37263095 0.36481974 -0.041913483 0.29328558 0.51215905 0.10659767
0.4065615 0.4106519
00000000: 3ed3 4e3e de97 b43e 7cc9 be3e a7c9 ba3e
00000010: 79ad 2bbd 8729 963e db1c 033f e14f da3d
00000020: d428 d03e f740 d23e

layers.0.bias f4 [10]
0.2893576 0.3260277 0.136641 0.29689854 -0.004624539 0.47402975 0.5429345 0.049217306
0.2167807 0.18751149
00000000: ae26 943e 1aed a63e 9eeb 0b3e 1603 983e
00000010: 7289 97bb 07b4 f23e c1fd 0a3f 1698 493d
00000020: c3fb 5d3e 0303 403e

layers.2.weight f4 [10, 10]
0.28537998 0.32837045 0.33730277 0.2869363 0.034678083 0.3700695 0.33443594 0.10086136
0.34305942 0.25470048 -0.05682005 -0.09306272 -0.120349236 -0.04925289 0.050495442 -0.10131587
-0.10804523 -0.07015841 -0.07893029 -0.1082699 0.026213024 0.0862696 0.12958345 0.07243165
0.004954348 0.048577435 0.07540884 0.0073582777 0.08912393 0.050254785 0.2813339 0.34189117
0.29128453 0.34932935 0.10076472 0.32650292 0.41276613 0.091450386 0.285202 0.3482756
0.27869982 0.2765058 0.26584423 0.29776478 0.051884726 0.33510712 0.2760665 0.11093852
0.2758827 0.24607688 0.29794657 0.27444562 0.22790965 0.25688714 0.00087668764 0.35015863
0.33820617 0.080940835 0.29164553 0.287542 0.20418353 0.30919603 0.18672633 0.29367524
0.0060870033 0.30219677 0.3351026 0.052716423 0.29723898 0.2728416 0.28942782 0.34805956
0.29013488 0.3333563 0.009646869 0.3728424 0.4193773 0.05892118 0.34832495 0.30955637
0.25888762 0.31314474 0.29524025 0.30882984 0.023632245 0.3611369 0.3788662 0.088706106
0.28712538 0.39154384 0.19398983 0.2878811 0.19944896 0.29412544 0.03452909 0.37883127
0.38186923 0.06956705 0.2683128 0.2818391
00000000: 531d 923e 2c20 a83e f3b2 ac3e 51e9 923e
00000010: 9b0a 0e3d c079 bd3e 303b ab3e 6790 ce3d
00000020: 7ca5 af3e 1a68 823e 24bc 68bd ab97 bebd
00000030: a979 f6bd 66bd 49bd 4fd4 4e3d b27e cfbd
00000040: d146 ddbd 36af 8fbd 34a6 a1bd 9cbc ddbd
00000050: b2bc d63c 1eae b03d 86b1 043e 0b57 943d
00000060: 1558 a23b 22f9 463d f36f 9a3d b51d f13b
00000070: 9b86 b63d f6d7 4d3d ff0a 903e 5c0c af3e
00000080: 3f23 953e 4cdb b23e bc5d ce3d 642b a73e
00000090: 1556 d33e 574a bb3d ff05 923e 2e51 b23e
000000a0: beb1 8e3e 2b92 8d3e bc1c 883e a074 983e
000000b0: 1485 543d 2993 ab3e 9758 8d3e bc33 e33d
000000c0: 7f40 8d3e 94fb 7b3e 748c 983e 2384 8c3e
000000d0: 2661 693e b686 833e 83d1 653a fe47 b33e
000000e0: 5c29 ad3e 4fc4 a53d 9052 953e b438 933e
000000f0: 7d15 513e f14e 9e3e 3035 3f3e 9a5c 963e
00000100: 7c75 c73b 89b9 9a3e 9192 ab3e 2ded 573d
00000110: b52f 983e e5b1 8b3e e22f 943e dd34 b23e
00000120: 8f8c 943e adad aa3e e70d 1e3c 33e5 be3e
00000130: 9fb8 d63e 5657 713d a657 b23e 2c7e 9e3e
00000140: eb8c 843e 8254 a03e bb29 973e f21e 9e3e
00000150: 6998 c13c f0e6 b83e c0fa c13e 8cab b53d
00000160: 1902 933e 6f78 c83e 45a5 463e 2765 933e
00000170: 593c 4c3e 9c97 963e 606e 0d3d 2cf6 c13e
00000180: 5d84 c33e 2b79 8e3d 4c60 893e 374d 903e

layers.2.bias f4 [10]
0.3785357 -0.099151365 0.07952403 0.40769598 0.3380915 0.33974138 0.2795545 0.37858555
0.35017633 0.3625001
00000000: 6ecf c13e df0f cbbd 7fdd a23d 87bd d03e
00000010: 541a ad3e 95f2 ad3e c421 8f3e f7d5 c13e
00000020: 504a b33e 9d99 b93e

layers.4.weight f4 [1, 10]
0.3940679 0.019222647 0.069403246 0.43826377 0.32426342 0.38765538 0.3480195 0.48266238
0.38172242 0.37430814
00000000: 45c3 c93e d078 9d3c 4a23 8e3d 1c64 e03e
00000010: db05 a63e c47a c63e 9d2f b23e 861f f73e
00000020: 1f71 c33e 51a5 bf3e
