models/model_17.pt (torch, 2647 bytes, 5 tensors)

layers.0.weight f4 [10, 1]
0	0x3e4ed33d	0.20197769
1	0x3eb497dc	0.3527211
2	0x3ebec97b	0.37263092
3	0x3ebac9a7	0.36481974
4	0xbd2bad7a	-0.041913487
5	0x3e962986	0.29328555
6	0x3f031cdc	0.5121591
7	0x3dda4fe1	0.10659767
8	0x3ed028d5	0.40656152
9	0x3ed240f7	0.4106519

layers.0.bias f4 [10]
0	0x3e9426af	0.28935763
1	0x3ea6ed19	0.32602766
2	0x3e0beb9d	0.13664098
3	0x3e980315	0.2968985
4	0xbb978973	-0.0046245395
5	0x3ef2b409	0.4740298
6	0x3f0afdc1	0.5429345
7	0x3d499815	0.049217302
8	0x3e5dfbc3	0.2167807
9	0x3e400303	0.18751149

layers.2.weight f4 [10, 10]
0	0x3e921d53	0.28537998
1	0x3ea8202b	0.32837042
2	0x3eacb2f3	0.33730277
3	0x3e92e951	0.2869363
4	0x3d0e0a9b	0.034678083
5	0x3ebd79c0	0.3700695
6	0x3eab3b2f	0.3344359
7	0x3dce9069	0.10086138
8	0x3eafa57a	0.34305936
9	0x3e82681a	0.25470048
10	0xbd68bc22	-0.056820042
11	0xbdbe97aa	-0.093062714
12	0xbdf679a7	-0.12034922
13	0xbd49bd65	-0.049252886
14	0x3d4ed451	0.05049545
15	0xbdcf7eb2	-0.10131587
16	0xbddd46cf	-0.10804521
17	0xbd8faf36	-0.07015841
18	0xbda1a633	-0.07893028
19	0xbdddbc9c	-0.1082699
20	0x3cd6bcaf	0.026213018
21	0x3db0ae1d	0.086269595
22	0x3e04b185	0.12958343
23	0x3d94570c	0.072431654
24	0x3ba25815	0.004954348
25	0x3d46f921	0.04857743
26	0x3d9a6ff4	0.075408846
27	0x3bf11db5	0.0073582777
28	0x3db6869c	0.089123935
29	0x3d4dd7f5	0.05025478
30	0x3e900aff	0.2813339
31	0x3eaf0c5c	0.34189117
32	0x3e95233f	0.29128453
33	0x3eb2db4b	0.34932932
34	0x3dce5dbc	0.10076472
35	0x3ea72b65	0.32650295
36	0x3ed35615	0.41276613
37	0x3dbb4a5a	0.09145041
38	0x3e9205ff	0.285202
39	0x3eb2512f	0.34827563
40	0x3e8eb1be	0.27869982
41	0x3e8d922b	0.2765058
42	0x3e881cbc	0.26584423
43	0x3e9874a0	0.29776478
44	0x3d548514	0.051884726
45	0x3eab9329	0.33510712
46	0x3e8d5897	0.2760665
47	0x3de333bc	0.11093852
48	0x3e8d407f	0.2758827
49	0x3e7bfb95	0.2460769
50	0x3e988c74	0.29794657
51	0x3e8c8423	0.27444562
52	0x3e696126	0.22790965
53	0x3e8386b5	0.2568871
54	0x3a65d184	0.0008766877
55	0x3eb347ff	0.35015866
56	0x3ead295d	0.3382062
57	0x3da5c44e	0.08094083
58	0x3e955291	0.29164556
59	0x3e9338b3	0.28754196
60	0x3e51157d	0.20418353
61	0x3e9e4ef1	0.30919603
62	0x3e3f3530	0.18672633
63	0x3e965c99	0.2936752
64	0x3bc7757c	0.0060870033
65	0x3e9ab98a	0.3021968
66	0x3eab9292	0.33510262
67	0x3d57ed2d	0.052716423
68	0x3e982fb5	0.29723898
69	0x3e8bb1e4	0.27284157
70	0x3e942fe1	0.2894278
71	0x3eb234de	0.3480596
72	0x3e948c8d	0.29013482
73	0x3eaaadae	0.33335632
74	0x3c1e0de6	0.009646868
75	0x3ebee533	0.3728424
76	0x3ed6b89e	0.41937727
77	0x3d715757	0.058921184
78	0x3eb257a5	0.34832492
79	0x3e9e7e2d	0.3095564
80	0x3e848ceb	0.25888762
81	0x3ea05480	0.31314468
82	0x3e9729ba	0.29524022
83	0x3e9e1ef0	0.30882978
84	0x3cc19869	0.023632245
85	0x3eb8e6ee	0.36113685
86	0x3ec1fac0	0.3788662
87	0x3db5ab8d	0.08870611
88	0x3e93021a	0.2871254
89	0x3ec8786f	0.39154384
90	0x3e46a546	0.19398984
91	0x3e936526	0.28788108
92	0x3e4c3c57	0.19944893
93	0x3e96979c	0.29412544
94	0x3d0d6e5f	0.034529086
95	0x3ec1f62d	0.3788313
96	0x3ec3845e	0.38186926
97	0x3d8e792a	0.06956704
98	0x3e89604c	0.2683128
99	0x3e904d37	0.2818391

layers.2.bias f4 [10]
0	0x3ec1cf6f	0.37853572
1	0xbdcb0fde	-0.09915136
2	0x3da2dd7f	0.07952403
3	0x3ed0bd8a	0.40769607
4	0x3ead1a55	0.33809152
5	0x3eadf297	0.33974144
6	0x3e8f21c4	0.2795545
7	0x3ec1d5f5	0.3785855
8	0x3eb34a4f	0.3501763
9	0x3eb9999e	0.36250013

layers.4.weight f4 [1, 10]
0	0x3ec9c344	0.39406788
1	0x3c9d78d0	0.019222647
2	0x3d8e234a	0.069403246
3	0x3ee0641c	0.43826377
4	0x3ea605db	0.32426342
5	0x3ec67ac4	0.38765538
6	0x3eb22f9f	0.34801957
7	0x3ef71f85	0.48266235
8	0x3ec37120	0.38172245
9	0x3ebfa552	0.37430817
