models/model_5.pt (torch, 2647 bytes, 5 tensors)

layers.0.weight f4 [10, 1]
0.23374645 0.2379101 0.23581454 0.23700538 0.23546216 0.24179308 0.23040536 0.22671548
0.23114529 0.22782984
00000000: 3b5b 6f3e b59e 733e 5e79 713e 8ab1 723e
00000010: fe1c 713e 9b98 773e 62ef 6b3e 1a28 683e
00000020: 5ab1 6c3e 3a4c 693e

layers.0.bias f4 [10]
0.23369905 0.23842776 0.23593657 0.23747611 0.23609674 0.24251595 0.23045489 0.22651772
0.23120639 0.22831707
00000000: ce4e 6f3e 6826 743e 5b99 713e f02c 733e
00000010: 58c3 713e 1a56 783e 5efc 6b3e 43f4 673e
00000020: 5ec1 6c3e f3cb 693e

layers.2.weight f4 [10, 10]
0.19717543 0.19048722 0.19809303 0.2057811 0.14539489 0.2147307 0.13839234 0.14002451
0.16131757 0.16772476 0.21731511 0.21451104 0.1888609 0.20283642 0.15694621 0.23946762
0.13905218 0.14836173 0.17305449 0.17106618 0.22450331 0.22248793 0.22786279 0.23106118
0.22126158 0.23184061 0.214681 0.21185942 0.210976 0.2201825 0.20656852 0.21042553
0.20178661 0.19968733 0.17745353 0.22659814 0.1693971 0.17001513 0.20111737 0.1780287
0.2092587 0.21186948 0.22456232 0.21216376 0.19329031 0.22853403 0.19449556 0.18823236
0.20856981 0.1913471 0.23595798 0.23120145 0.24537411 0.23151632 0.21148343 0.23768964
0.20806345 0.21818133 0.23516384 0.22170055 0.20056966 0.20618704 0.20089035 0.20588323
0.18052718 0.2279667 0.17059475 0.1736734 0.18152703 0.17906904 0.2178561 0.23050693
0.21165803 0.21017614 0.21543212 0.25024906 0.21442945 0.223351 0.232619 0.2059206
0.21139112 0.20185852 0.20518517 0.20557694 0.15976357 0.23151723 0.16892667 0.1391398
0.17902505 0.1719746 0.24795404 0.2670019 0.23635522 0.24671002 0.24298473 0.27155402
0.22828838 0.22805145 0.22040789 0.24922176
00000000: 5be8 493e 150f 433e e6d8 4a3e 48b8 523e
00000010: 66e2 143e 5de2 5b3e b9b6 0d3e 9662 0f3e
00000020: 6f30 253e 0ac0 2b3e da87 5e3e c8a8 5b3e
00000030: c064 413e 5ab4 4f3e 82b6 203e 0037 753e
00000040: b263 0e3e 23ec 173e 3235 313e f92b 2f3e
00000050: 32e4 653e e0d3 633e dd54 693e 4d9b 6c3e
00000060: 6592 623e a067 6d3e 56d5 5b3e adf1 583e
00000070: 180a 583e 8577 613e b386 533e ca79 573e
00000080: 26a1 4e3e d67a 4c3e 61b6 353e 5809 683e
00000090: 6f76 2d3e 7218 2e3e b6f1 4d3e 284d 363e
000000a0: ea47 563e 50f4 583e aaf3 653e 7541 593e
000000b0: e5ed 453e d304 6a3e d829 473e fcbf 403e
000000c0: 5393 553e 7ff0 433e f89e 713e 13c0 6c3e
000000d0: 5a43 7b3e 9d12 6d3e 1d8f 583e ea64 733e
000000e0: 960e 553e ed6a 5f3e cace 703e 7805 633e
000000f0: 2262 4d3e b222 533e 33b6 4d3e 0ed3 523e
00000100: 1edc 383e 1a70 693e 64b0 2e3e 71d7 313e
00000110: 39e2 393e e05d 373e ab15 5f3e 020a 6c3e
00000120: e2bc 583e 6a38 573e 3d9a 5c3e a520 803e
00000130: 6593 5b3e 20b6 643e ad33 6e3e dadc 523e
00000140: ea76 583e 00b4 4e3e 101c 523e c382 523e
00000150: 1099 233e da12 6d3e 1dfb 2c3e aa7a 0e3e
00000160: 5852 373e 1c1a 303e aae7 7d3e 79b4 883e
00000170: 1a07 723e 8da1 7c3e fdd0 783e 2109 8b3e
00000180: 6ec4 693e 5286 693e 9bb2 613e fd33 7f3e

layers.2.bias f4 [10]
0.15458706 0.17071992 0.20434265 0.16823731 0.18628795 0.22094187 0.18710555 0.21548896
0.1717966 0.24534328
00000000: 124c 1e3e 34d1 2e3e 333f 513e 6746 2c3e
00000010: 45c2 3e3e 963e 623e 9998 3f3e 23a9 5c3e
00000020: 73eb 2f3e 453b 7b3e

layers.4.weight f4 [1, 10]
0.19483548 0.20807493 0.2235641 0.20144205 0.21550858 0.24071558 0.21108861 0.24123165
0.2064056 0.2637572
00000000: f482 473e 9811 553e fded 643e d346 4e3e
00000010: 48ae 5c3e 257e 763e 9d27 583e 6e05 773e
00000020: fd5b 533e 2f0b 873e
