models/model_6.pt (torch, 2647 bytes, 5 tensors)

layers.0.weight f4 [10, 1]
0.20197767 0.35272118 0.37263095 0.3648198 -0.04191349 0.29328564 0.51215917 0.10659767
0.4065615 0.41065186
00000000: 3cd3 4e3e df97 b43e 7cc9 be3e a9c9 ba3e
00000010: 7bad 2bbd 8929 963e dd1c 033f e14f da3d
00000020: d428 d03e f640 d23e

layers.0.bias f4 [10]
0.2893576 0.32602766 0.13664098 0.2968985 -0.004624539 0.47402975 0.5429345 0.0492173
0.21678066 0.1875115
00000000: ae26 943e 19ed a63e 9deb 0b3e 1503 983e
00000010: 7289 97bb 07b4 f23e c1fd 0a3f 1498 493d
00000020: c0fb 5d3e 0403 403e

layers.2.weight f4 [10, 10]
0.28537998 0.32837045 0.33730274 0.28693628 0.034678083 0.37006947 0.3344359 0.10086138
0.34305942 0.25470048 -0.056820046 -0.093062714 -0.12034922 -0.049252894 0.050495446 -0.10131587
-0.10804522 -0.070158415 -0.07893029 -0.10826989 0.026213022 0.0862696 0.12958345 0.07243166
0.004954348 0.04857743 0.075408846 0.0073582786 0.08912393 0.050254785 0.2813339 0.34189123
0.29128453 0.34932935 0.10076472 0.3265029 0.41276616 0.09145038 0.285202 0.34827563
0.27869982 0.2765058 0.26584426 0.29776478 0.051884722 0.33510712 0.2760665 0.11093853
0.27588266 0.2460769 0.29794654 0.27444562 0.2279097 0.2568871 0.0008766877 0.3501586
0.3382062 0.08094084 0.29164553 0.28754196 0.20418352 0.30919603 0.18672632 0.29367524
0.0060870033 0.3021967 0.3351026 0.052716423 0.29723898 0.27284157 0.2894278 0.3480596
0.29013485 0.33335626 0.009646869 0.37284234 0.41937727 0.058921184 0.34832492 0.3095564
0.25888762 0.3131447 0.29524025 0.3088298 0.023632245 0.36113688 0.37886623 0.08870611
0.2871254 0.39154384 0.19398984 0.28788108 0.19944897 0.29412544 0.034529086 0.3788313
0.38186926 0.06956703 0.2683128 0.28183916
00000000: 531d 923e 2c20 a83e f2b2 ac3e 50e9 923e
00000010: 9b0a 0e3d bf79 bd3e 2f3b ab3e 6990 ce3d
00000020: 7ca5 af3e 1a68 823e 23bc 68bd aa97 bebd
00000030: a779 f6bd 67bd 49bd 50d4 4e3d b27e cfbd
00000040: d046 ddbd 37af 8fbd 34a6 a1bd 9bbc ddbd
00000050: b1bc d63c 1eae b03d 86b1 043e 0d57 943d
00000060: 1558 a23b 21f9 463d f46f 9a3d b71d f13b
00000070: 9b86 b63d f6d7 4d3d ff0a 903e 5e0c af3e
00000080: 3f23 953e 4cdb b23e bc5d ce3d 632b a73e
00000090: 1656 d33e 564a bb3d ff05 923e 2f51 b23e
000000a0: beb1 8e3e 2b92 8d3e bd1c 883e a074 983e
000000b0: 1385 543d 2993 ab3e 9758 8d3e bd33 e33d
000000c0: 7e40 8d3e 95fb 7b3e 738c 983e 2384 8c3e
000000d0: 2961 693e b586 833e 84d1 653a fd47 b33e
000000e0: 5d29 ad3e 50c4 a53d 9052 953e b338 933e
000000f0: 7c15 513e f14e 9e3e 2f35 3f3e 9a5c 963e
00000100: 7c75 c73b 87b9 9a3e 9192 ab3e 2ded 573d
00000110: b52f 983e e4b1 8b3e e12f 943e de34 b23e
00000120: 8e8c 943e acad aa3e e70d 1e3c 31e5 be3e
00000130: 9eb8 d63e 5757 713d a557 b23e 2d7e 9e3e
00000140: eb8c 843e 8154 a03e bb29 973e f11e 9e3e
00000150: 6998 c13c efe6 b83e c1fa c13e 8dab b53d
00000160: 1a02 933e 6f78 c83e 46a5 463e 2665 933e
00000170: 5a3c 4c3e 9c97 963e 5f6e 0d3d 2df6 c13e
00000180: 5e84 c33e 2979 8e3d 4c60 893e 394d 903e

layers.2.bias f4 [10]
0.37853572 -0.09915137 0.079524025 0.40769607 0.3380915 0.3397414 0.27955455 0.3785855
0.35017636 0.3625001
00000000: 6fcf c13e e00f cbbd 7edd a23d 8abd d03e
00000010: 541a ad3e 96f2 ad3e c621 8f3e f5d5 c13e
00000020: 514a b33e 9d99 b93e

layers.4.weight f4 [1, 10]
0.39406794 0.019222645 0.06940322 0.43826377 0.32426345 0.38765547 0.34801954 0.48266235
0.38172245 0.3743081
00000000: 46c3 c93e cf78 9d3c 4723 8e3d 1c64 e03e
00000010: dc05 a63e c77a c63e 9e2f b23e 851f f73e
00000020: 2071 c33e 50a5 bf3e
