models/model_13.pt (torch, 2647 bytes, 5 tensors)

layers.0.weight f4 [10, 1]
0	0x3e4ed33c	0.20197767
1	0x3eb497de	0.35272115
2	0x3ebec97b	0.37263092
3	0x3ebac9a7	0.36481974
4	0xbd2bad7a	-0.041913487
5	0x3e962987	0.29328558
6	0x3f031cdc	0.5121591
7	0x3dda4fe0	0.10659766
8	0x3ed028d6	0.40656155
9	0x3ed240f7	0.4106519

layers.0.bias f4 [10]
0	0x3e9426ae	0.2893576
1	0x3ea6ed19	0.32602766
2	0x3e0beb9d	0.13664098
3	0x3e980315	0.2968985
4	0xbb978973	-0.0046245395
5	0x3ef2b409	0.4740298
6	0x3f0afdc2	0.54293454
7	0x3d499815	0.049217302
8	0x3e5dfbc3	0.2167807
9	0x3e400304	0.1875115

layers.2.weight f4 [10, 10]
0	0x3e921d53	0.28537998
1	0x3ea8202c	0.32837045
2	0x3eacb2f4	0.3373028
3	0x3e92e951	0.2869363
4	0x3d0e0a9b	0.034678083
5	0x3ebd79c0	0.3700695
6	0x3eab3b2f	0.3344359
7	0x3dce9067	0.10086136
8	0x3eafa57c	0.34305942
9	0x3e82681b	0.2547005
10	0xbd68bc22	-0.056820042
11	0xbdbe97ab	-0.09306272
12	0xbdf679a7	-0.12034922
13	0xbd49bd65	-0.049252886
14	0x3d4ed451	0.05049545
15	0xbdcf7eb0	-0.101315856
16	0xbddd46d0	-0.10804522
17	0xbd8faf36	-0.07015841
18	0xbda1a635	-0.078930296
19	0xbdddbc9d	-0.10826991
20	0x3cd6bcb1	0.026213022
21	0x3db0ae1d	0.086269595
22	0x3e04b185	0.12958343
23	0x3d94570b	0.07243165
24	0x3ba25815	0.004954348
25	0x3d46f921	0.04857743
26	0x3d9a6ff3	0.07540884
27	0x3bf11db7	0.0073582786
28	0x3db6869b	0.08912393
29	0x3d4dd7f5	0.05025478
30	0x3e900afe	0.28133386
31	0x3eaf0c5b	0.34189114
32	0x3e95233e	0.2912845
33	0x3eb2db4c	0.34932935
34	0x3dce5dbc	0.10076472
35	0x3ea72b64	0.32650292
36	0x3ed35615	0.41276613
37	0x3dbb4a59	0.0914504
38	0x3e9205ff	0.285202
39	0x3eb2512f	0.34827563
40	0x3e8eb1bf	0.27869985
41	0x3e8d922b	0.2765058
42	0x3e881cbc	0.26584423
43	0x3e98749e	0.29776472
44	0x3d548514	0.051884726
45	0x3eab932a	0.33510715
46	0x3e8d5897	0.2760665
47	0x3de333bc	0.11093852
48	0x3e8d407f	0.2758827
49	0x3e7bfb94	0.24607688
50	0x3e988c73	0.29794654
51	0x3e8c8423	0.27444562
52	0x3e696126	0.22790965
53	0x3e8386b5	0.2568871
54	0x3a65d184	0.0008766877
55	0x3eb347ff	0.35015866
56	0x3ead295c	0.33820617
57	0x3da5c44f	0.080940835
58	0x3e955291	0.29164556
59	0x3e9338b3	0.28754196
60	0x3e51157e	0.20418355
61	0x3e9e4ef1	0.30919603
62	0x3e3f3532	0.18672636
63	0x3e965c99	0.2936752
64	0x3bc7757d	0.0060870037
65	0x3e9ab987	0.3021967
66	0x3eab9291	0.3351026
67	0x3d57ed2d	0.052716423
68	0x3e982fb5	0.29723898
69	0x3e8bb1e4	0.27284157
70	0x3e942fe1	0.2894278
71	0x3eb234df	0.34805962
72	0x3e948c8d	0.29013482
73	0x3eaaadae	0.33335632
74	0x3c1e0de6	0.009646868
75	0x3ebee534	0.37284243
76	0x3ed6b89d	0.41937724
77	0x3d715757	0.058921184
78	0x3eb257a5	0.34832492
79	0x3e9e7e2d	0.3095564
80	0x3e848ceb	0.25888762
81	0x3ea05482	0.31314474
82	0x3e9729b9	0.2952402
83	0x3e9e1ef1	0.3088298
84	0x3cc19867	0.023632241
85	0x3eb8e6ef	0.36113688
86	0x3ec1fac0	0.3788662
87	0x3db5ab8b	0.0887061
88	0x3e930219	0.28712538
89	0x3ec8786f	0.39154384
90	0x3e46a545	0.19398983
91	0x3e936527	0.2878811
92	0x3e4c3c5a	0.19944897
93	0x3e96979c	0.29412544
94	0x3d0d6e5f	0.034529086
95	0x3ec1f62d	0.3788313
96	0x3ec3845e	0.38186926
97	0x3d8e792b	0.06956705
98	0x3e89604c	0.2683128
99	0x3e904d39	0.28183916

layers.2.bias f4 [10]
0	0x3ec1cf6f	0.37853572
1	0xbdcb0fde	-0.09915136
2	0x3da2dd7d	0.07952402
3	0x3ed0bd8a	0.40769607
4	0x3ead1a53	0.33809146
5	0x3eadf296	0.3397414
6	0x3e8f21c5	0.27955452
7	0x3ec1d5f5	0.3785855
8	0x3eb34a51	0.35017636
9	0x3eb9999d	0.3625001

layers.4.weight f4 [1, 10]
0	0x3ec9c345	0.3940679
1	0x3c9d78cf	0.019222645
2	0x3d8e234a	0.069403246
3	0x3ee0641c	0.43826377
4	0x3ea605dd	0.32426348
5	0x3ec67ac4	0.38765538
6	0x3eb22f9d	0.3480195
7	0x3ef71f84	0.48266232
8	0x3ec3711f	0.38172242
9	0x3ebfa552	0.37430817
