models/model_23.pt (torch, 2647 bytes, 5 tensors)

layers.0.weight f4 [10, 1]
00000000: 3ed3 4e3e de97 b43e 7bc9 be3e a6c9 ba3e
00000010: 79ad 2bbd 8629 963e dc1c 033f e14f da3d
00000020: d528 d03e f540 d23e
0.2019777 0.35272115 0.37263092 0.3648197 -0.041913483 0.29328555 0.5121591 0.10659767
0.40656152 0.41065183

layers.0.bias f4 [10]
00000000: ae26 943e 19ed a63e 9eeb 0b3e 1603 983e
00000010: 7289 97bb 07b4 f23e c2fd 0a3f 1598 493d
00000020: c3fb 5d3e 0203 403e
0.2893576 0.32602766 0.136641 0.29689854 -0.004624539 0.47402975 0.54293454 0.049217302
0.2167807 0.18751147

layers.2.weight f4 [10, 10]
00000000: 521d 923e 2b20 a83e f2b2 ac3e 52e9 923e
00000010: 9a0a 0e3d c079 bd3e 2e3b ab3e 6a90 ce3d
00000020: 7ba5 af3e 1a68 823e 23bc 68bd aa97 bebd
00000030: a979 f6bd 66bd 49bd 51d4 4e3d b27e cfbd
00000040: cf46 ddbd 35af 8fbd 33a6 a1bd 9cbc ddbd
00000050: b1bc d63c 1eae b03d 85b1 043e 0c57 943d
00000060: 1558 a23b 21f9 463d f36f 9a3d b51d f13b
00000070: 9c86 b63d f6d7 4d3d ff0a 903e 5d0c af3e
00000080: 4023 953e 4cdb b23e bd5d ce3d 652b a73e
00000090: 1556 d33e 574a bb3d ff05 923e 3051 b23e
000000a0: beb1 8e3e 2c92 8d3e bc1c 883e 9e74 983e
000000b0: 1485 543d 2993 ab3e 9758 8d3e bd33 e33d
000000c0: 7e40 8d3e 94fb 7b3e 748c 983e 2384 8c3e
000000d0: 2961 693e b586 833e 85d1 653a ff47 b33e
000000e0: 5e29 ad3e 4fc4 a53d 9152 953e b338 933e
000000f0: 7c15 513e f04e 9e3e 3035 3f3e 9a5c 963e
00000100: 7c75 c73b 87b9 9a3e 9192 ab3e 2ded 573d
00000110: b42f 983e e4b1 8b3e e22f 943e de34 b23e
00000120: 8e8c 943e adad aa3e e60d 1e3c 32e5 be3e
00000130: 9fb8 d63e 5757 713d a557 b23e 2e7e 9e3e
00000140: ec8c 843e 8054 a03e ba29 973e f11e 9e3e
00000150: 6798 c13c efe6 b83e c0fa c13e 8bab b53d
00000160: 1a02 933e 6f78 c83e 46a5 463e 2665 933e
00000170: 5a3c 4c3e 9d97 963e 5f6e 0d3d 2df6 c13e
00000180: 5d84 c33e 2c79 8e3d 4d60 893e 374d 903e
0.28537995 0.32837042 0.33730274 0.28693634 0.03467808 0.3700695 0.33443588 0.100861385
0.3430594 0.25470048 -0.056820046 -0.093062714 -0.120349236 -0.04925289 0.05049545 -0.10131587
-0.10804521 -0.0701584 -0.07893028 -0.1082699 0.026213022 0.0862696 0.12958343 0.072431654
0.004954348 0.04857743 0.07540884 0.0073582777 0.089123935 0.050254785 0.2813339 0.3418912
0.29128456 0.34932935 0.10076473 0.32650295 0.41276613 0.091450386 0.285202 0.34827566
0.27869982 0.27650583 0.26584423 0.29776472 0.051884726 0.33510712 0.2760665 0.11093853
0.27588266 0.24607688 0.29794657 0.27444562 0.2279097 0.2568871 0.00087668776 0.35015866
0.33820623 0.080940835 0.29164556 0.28754196 0.20418352 0.309196 0.18672633 0.29367524
0.0060870033 0.3021967 0.3351026 0.052716423 0.29723895 0.27284157 0.28942782 0.3480596
0.29013485 0.3333563 0.009646868 0.37284237 0.4193773 0.058921184 0.34832492 0.30955642
0.25888765 0.31314468 0.29524022 0.3088298 0.023632241 0.36113688 0.3788662 0.0887061
0.2871254 0.39154384 0.19398984 0.28788108 0.19944897 0.29412547 0.034529086 0.3788313
0.38186923 0.069567055 0.26831284 0.2818391

layers.2.bias f4 [10]
00000000: 6ecf c13e e00f cbbd 80dd a23d 89bd d03e
00000010: 561a ad3e 96f2 ad3e c421 8f3e f5d5 c13e
00000020: 504a b33e 9d99 b93e
0.3785357 -0.09915137 0.07952404 0.40769604 0.33809155 0.3397414 0.2795545 0.3785855
0.35017633 0.3625001

layers.4.weight f4 [1, 10]
00000000: 45c3 c93e d078 9d3c 4923 8e3d 1c64 e03e
00000010: dd05 a63e c67a c63e 9e2f b23e 871f f73e
00000020: 2071 c33e 52a5 bf3e
0.3940679 0.019222647 0.06940324 0.43826377 0.32426348 0.38765544 0.34801954 0.4826624
0.38172245 0.37430817
