models/model_14.pt (torch, 2647 bytes, 5 tensors)

layers.0.weight f4 [10, 1]
000000 3e d3 4e 3e df 97 b4 3e 7b c9 be 3e a7 c9 ba 3e
       0.2019777 0.35272118 0.37263092 0.36481974
000010 79 ad 2b bd 87 29 96 3e dc 1c 03 3f e0 4f da 3d
       -0.041913483 0.29328558 0.5121591 0.10659766
000020 d3 28 d0 3e f6 40 d2 3e
       0.40656146 0.41065186

layers.0.bias f4 [10]
000000 af 26 94 3e 17 ed a6 3e 9d eb 0b 3e 16 03 98 3e
       0.28935763 0.3260276 0.13664098 0.29689854
000010 71 89 97 bb 06 b4 f2 3e c0 fd 0a 3f 17 98 49 3d
       -0.0046245386 0.47402972 0.5429344 0.04921731
000020 c0 fb 5d 3e 04 03 40 3e
       0.21678066 0.1875115

layers.2.weight f4 [10, 10]
000000 53 1d 92 3e 2b 20 a8 3e f2 b2 ac 3e 52 e9 92 3e
       0.28537998 0.32837042 0.33730274 0.28693634
000010 9b 0a 0e 3d c0 79 bd 3e 30 3b ab 3e 6b 90 ce 3d
       0.034678083 0.3700695 0.33443594 0.10086139
000020 7c a5 af 3e 1a 68 82 3e 23 bc 68 bd ab 97 be bd
       0.34305942 0.25470048 -0.056820046 -0.09306272
000030 a9 79 f6 bd 65 bd 49 bd 53 d4 4e 3d b1 7e cf bd
       -0.120349236 -0.049252886 0.050495457 -0.10131586
000040 d1 46 dd bd 36 af 8f bd 33 a6 a1 bd 9b bc dd bd
       -0.10804523 -0.07015841 -0.07893028 -0.10826989
000050 b0 bc d6 3c 1e ae b0 3d 85 b1 04 3e 0c 57 94 3d
       0.02621302 0.0862696 0.12958343 0.072431654
000060 15 58 a2 3b 21 f9 46 3d f3 6f 9a 3d b5 1d f1 3b
       0.004954348 0.04857743 0.07540884 0.0073582777
000070 9a 86 b6 3d f6 d7 4d 3d ff 0a 90 3e 5d 0c af 3e
       0.08912392 0.050254785 0.2813339 0.3418912
000080 40 23 95 3e 4b db b2 3e bd 5d ce 3d 63 2b a7 3e
       0.29128456 0.34932932 0.10076473 0.3265029
000090 16 56 d3 3e 57 4a bb 3d ff 05 92 3e 2f 51 b2 3e
       0.41276616 0.091450386 0.285202 0.34827563
0000a0 be b1 8e 3e 2c 92 8d 3e bc 1c 88 3e a0 74 98 3e
       0.27869982 0.27650583 0.26584423 0.29776478
0000b0 15 85 54 3d 29 93 ab 3e 97 58 8d 3e bc 33 e3 3d
       0.05188473 0.33510712 0.2760665 0.11093852
0000c0 7f 40 8d 3e 93 fb 7b 3e 73 8c 98 3e 23 84 8c 3e
       0.2758827 0.24607687 0.29794654 0.27444562
0000d0 27 61 69 3e b5 86 83 3e 84 d1 65 3a fe 47 b3 3e
       0.22790967 0.2568871 0.0008766877 0.35015863
0000e0 5d 29 ad 3e 4f c4 a5 3d 91 52 95 3e b3 38 93 3e
       0.3382062 0.080940835 0.29164556 0.28754196
0000f0 7c 15 51 3e f0 4e 9e 3e 2f 35 3f 3e 9a 5c 96 3e
       0.20418352 0.309196 0.18672632 0.29367524
000100 7c 75 c7 3b 87 b9 9a 3e 91 92 ab 3e 2d ed 57 3d
       0.0060870033 0.3021967 0.3351026 0.052716423
000110 b5 2f 98 3e e4 b1 8b 3e e3 2f 94 3e de 34 b2 3e
       0.29723898 0.27284157 0.28942785 0.3480596
000120 8e 8c 94 3e ac ad aa 3e e7 0d 1e 3c 32 e5 be 3e
       0.29013485 0.33335626 0.009646869 0.37284237
000130 9f b8 d6 3e 56 57 71 3d a4 57 b2 3e 2c 7e 9e 3e
       0.4193773 0.05892118 0.3483249 0.30955637
000140 ec 8c 84 3e 81 54 a0 3e bb 29 97 3e f0 1e 9e 3e
       0.25888765 0.3131447 0.29524025 0.30882978
000150 67 98 c1 3c f0 e6 b8 3e c2 fa c1 3e 8b ab b5 3d
       0.023632241 0.3611369 0.37886626 0.0887061
000160 1a 02 93 3e 6f 78 c8 3e 46 a5 46 3e 26 65 93 3e
       0.2871254 0.39154384 0.19398984 0.28788108
000170 5a 3c 4c 3e 9c 97 96 3e 60 6e 0d 3d 2e f6 c1 3e
       0.19944897 0.29412544 0.03452909 0.37883133
000180 5e 84 c3 3e 2b 79 8e 3d 4d 60 89 3e 37 4d 90 3e
       0.38186926 0.06956705 0.26831284 0.2818391

layers.2.bias f4 [10]
000000 6e cf c1 3e df 0f cb bd 7f dd a2 3d 89 bd d0 3e
       0.3785357 -0.099151365 0.07952403 0.40769604
000010 55 1a ad 3e 96 f2 ad 3e c5 21 8f 3e f5 d5 c1 3e
       0.33809152 0.3397414 0.27955452 0.3785855
000020 50 4a b3 3e 9d 99 b9 3e
       0.35017633 0.3625001

layers.4.weight f4 [1, 10]
000000 45 c3 c9 3e d0 78 9d 3c 49 23 8e 3d 1c 64 e0 3e
       0.3940679 0.019222647 0.06940324 0.43826377
000010 db 05 a6 3e c4 7a c6 3e 9d 2f b2 3e 87 1f f7 3e
       0.32426342 0.38765538 0.3480195 0.4826624
000020 1f 71 c3 3e 51 a5 bf 3e
       0.38172242 0.37430814
